…
I0823 17:27:15.464926 29136 net.cpp:339] The NetState phase (0) differed from the phase (1) specified by a rule in layer loss3/top-5
I0823 17:27:15.466267 29136 net.cpp:50] Initializing net from parameters: 
name: "GoogleNet"
state {
  phase: TRAIN
}
layer {
  name: "data"
  type: "Data"
  top: "data"
  top: "label"
  include {
    phase: TRAIN
  }
  transform_param {
    mirror: true
    crop_size: 224
    mean_value: 104
    mean_value: 117
    mean_value: 123
  }
  data_param {
    source: "examples/imagenet/ilsvrc12_train_lmdb"
    batch_size: 32
    backend: LMDB
  }
}
layer {
  name: "conv1/7x7_s2"
  type: "Convolution"
  bottom: "data"
  top: "conv1/7x7_s2"
  param {
    lr_mult: 1
    decay_mult: 1
  }
  param {
    lr_mult: 2
    decay_mult: 0
  }
  convolution_param {
    num_output: 64
    pad: 3
    kernel_size: 7
    stride: 2
    weight_filler {
      type: "xavier"
    }
    bias_filler {
      type: "constant"
      value: 0.2
    }
  }
}
layer {
  name: "conv1/relu_7x7"
  type: "ReLU"
  bottom: "conv1/7x7_s2"
  top: "conv1/7x7_s2"
}
layer {
  name: "pool1/3x3_s2"
  type: "Pooling"
  bottom: "conv1/7x7_s2"
  top: "pool1/3x3_s2"
  pooling_param {
    pool: MAX
    kernel_size: 3
    stride: 2
  }
}
layer {
  name: "pool1/norm1"
  type: "LRN"
  bottom: "pool1/3x3_s2"
  top: "pool1/norm1"
  lrn_param {
    local_size: 5
    alpha: 0.0001
    beta: 0.75
  }
}
layer {
  name: "conv2/3x3_reduce"
  type: "Convolution"
  bottom: "pool1/norm1"
  top: "conv2/3x3_reduce"
  param {
    lr_mult: 1
    decay_mult: 1
  }
  param {
    lr_mult: 2
    decay_mult: 0
  }
  convolution_param {
    num_output: 64
    kernel_size: 1
    weight_filler {
      type: "xavier"
    }
    bias_filler {
      type: "constant"
      value: 0.2
    }
  }
}
layer {
  name: "conv2/relu_3x3_reduce"
  type: "ReLU"
  bottom: "conv2/3x3_reduce"
  top: "conv2/3x3_reduce"
}
layer {
  name: "conv2/3x3"
  type: "Convolution"
  bottom: "conv2/3x3_reduce"
  top: "conv2/3x3"
  param {
    lr_mult: 1
    decay_mult: 1
  }
  param {
    lr_mult: 2
    decay_mult: 0
  }
  convolution_param {
    num_output: 192
    pad: 1
    kernel_size: 3
    weight_filler {
      type: "xavier"
    }
    bias_filler {
      type: "constant"
      value: 0.2
    }
  }
}
layer {
  name: "conv2/relu_3x3"
  type: "ReLU"
  bottom: "conv2/3x3"
  top: "conv2/3x3"
}
layer {
  name: "conv2/norm2"
  type: "LRN"
  bottom: "conv2/3x3"
  top: "conv2/norm2"
  lrn_param {
    local_size: 5
    alpha: 0.0001
    beta: 0.75
  }
}
layer {
  name: "pool2/3x3_s2"
  type: "Pooling"
  bottom: "conv2/norm2"
  top: "pool2/3x3_s2"
  pooling_param {
    pool: MAX
    kernel_size: 3
    stride: 2
  }
}
layer {
  name: "inception_3a/1x1"
  type: "Convolution"
  bottom: "pool2/3x3_s2"
  top: "inception_3a/1x1"
  param {
    lr_mult: 1
    decay_mult: 1
  }
  param {
    lr_mult: 2
    decay_mult: 0
  }
  convolution_param {
    num_output: 64
    kernel_size: 1
    weight_filler {
      type: "xavier"
    }
    bias_filler {
      type: "constant"
      value: 0.2
    }
  }
}
layer {
  name: "inception_3a/relu_1x1"
  type: "ReLU"
  bottom: "inception_3a/1x1"
  top: "inception_3a/1x1"
}
layer {
  name: "inception_3a/3x3_reduce"
  type: "Convolution"
  bottom: "pool2/3x3_s2"
  top: "inception_3a/3x3_reduce"
  param {
    lr_mult: 1
    decay_mult: 1
  }
  param {
    lr_mult: 2
    decay_mult: 0
  }
  convolution_param {
    num_output: 96
    kernel_size: 1
    weight_filler {
      type: "xavier"
    }
    bias_filler {
      type: "constant"
      value: 0.2
    }
  }
}
layer {
  name: "inception_3a/relu_3x3_reduce"
  type: "ReLU"
  bottom: "inception_3a/3x3_reduce"
  top: "inception_3a/3x3_reduce"
}
layer {
  name: "inception_3a/3x3"
  type: "Convolution"
  bottom: "inception_3a/3x3_reduce"
  top: "inception_3a/3x3"
  param {
    lr_mult: 1
    decay_mult: 1
  }
  param {
    lr_mult: 2
    decay_mult: 0
  }
  convolution_param {
    num_output: 128
    pad: 1
    kernel_size: 3
    weight_filler {
      type: "xavier"
    }
    bias_filler {
      type: "constant"
      value: 0.2
    }
  }
}
layer {
  name: "inception_3a/relu_3x3"
  type: "ReLU"
  bottom: "inception_3a/3x3"
  top: "inception_3a/3x3"
}
layer {
  name: "inception_3a/5x5_reduce"
  type: "Convolution"
  bottom: "pool2/3x3_s2"
  top: "inception_3a/5x5_reduce"
  param {
    lr_mult: 1
    decay_mult: 1
  }
  param {
    lr_mult: 2
    decay_mult: 0
  }
  convolution_param {
    num_output: 16
    kernel_size: 1
    weight_filler {
      type: "xavier"
    }
    bias_filler {
      type: "constant"
      value: 0.2
    }
  }
}
layer {
  name: "inception_3a/relu_5x5_reduce"
  type: "ReLU"
  bottom: "inception_3a/5x5_reduce"
  top: "inception_3a/5x5_reduce"
}
layer {
  name: "inception_3a/5x5"
  type: "Convolution"
  bottom: "inception_3a/5x5_reduce"
  top: "inception_3a/5x5"
  param {
    lr_mult: 1
    decay_mult: 1
  }
  param {
    lr_mult: 2
    decay_mult: 0
  }
  convolution_param {
    num_output: 32
    pad: 2
    kernel_size: 5
    weight_filler {
      type: "xavier"
    }
    bias_filler {
      type: "constant"
      value: 0.2
    }
  }
}
layer {
  name: "inception_3a/relu_5x5"
  type: "ReLU"
  bottom: "inception_3a/5x5"
  top: "inception_3a/5x5"
}
layer {
  name: "inception_3a/pool"
  type: "Pooling"
  bottom: "pool2/3x3_s2"
  top: "inception_3a/pool"
  pooling_param {
    pool: MAX
    kernel_size: 3
    stride: 1
    pad: 1
  }
}
layer {
  name: "inception_3a/pool_proj"
  type: "Convolution"
  bottom: "inception_3a/pool"
  top: "inception_3a/pool_proj"
  param {
    lr_mult: 1
    decay_mult: 1
  }
  param {
    lr_mult: 2
    decay_mult: 0
  }
  convolution_param {
    num_output: 32
    kernel_size: 1
    weight_filler {
      type: "xavier"
    }
    bias_filler {
      type: "constant"
      value: 0.2
    }
  }
}
layer {
  name: "inception_3a/relu_pool_proj"
  type: "ReLU"
  bottom: "inception_3a/pool_proj"
  top: "inception_3a/pool_proj"
}
layer {
  name: "inception_3a/output"
  type: "Concat"
  bottom: "inception_3a/1x1"
  bottom: "inception_3a/3x3"
  bottom: "inception_3a/5x5"
  bottom: "inception_3a/pool_proj"
  top: "inception_3a/output"
}
layer {
  name: "inception_3b/1x1"
  type: "Convolution"
  bottom: "inception_3a/output"
  top: "inception_3b/1x1"
  param {
    lr_mult: 1
    decay_mult: 1
  }
  param {
    lr_mult: 2
    decay_mult: 0
  }
  convolution_param {
    num_output: 128
    kernel_size: 1
    weight_filler {
      type: "xavier"
    }
    bias_filler {
      type: "constant"
      value: 0.2
    }
  }
}
layer {
  name: "inception_3b/relu_1x1"
  type: "ReLU"
  bottom: "inception_3b/1x1"
  top: "inception_3b/1x1"
}
layer {
  name: "inception_3b/3x3_reduce"
  type: "Convolution"
  bottom: "inception_3a/output"
  top: "inception_3b/3x3_reduce"
  param {
    lr_mult: 1
    decay_mult: 1
  }
  param {
    lr_mult: 2
    decay_mult: 0
  }
  convolution_param {
    num_output: 128
    kernel_size: 1
    weight_filler {
      type: "xavier"
    }
    bias_filler {
      type: "constant"
      value: 0.2
    }
  }
}
layer {
  name: "inception_3b/relu_3x3_reduce"
  type: "ReLU"
  bottom: "inception_3b/3x3_reduce"
  top: "inception_3b/3x3_reduce"
}
layer {
  name: "inception_3b/3x3"
  type: "Convolution"
  bottom: "inception_3b/3x3_reduce"
  top: "inception_3b/3x3"
  param {
    lr_mult: 1
    decay_mult: 1
  }
  param {
    lr_mult: 2
    decay_mult: 0
  }
  convolution_param {
    num_output: 192
    pad: 1
    kernel_size: 3
    weight_filler {
      type: "xavier"
    }
    bias_filler {
      type: "constant"
      value: 0.2
    }
  }
}
layer {
  name: "inception_3b/relu_3x3"
  type: "ReLU"
  bottom: "inception_3b/3x3"
  top: "inception_3b/3x3"
}
layer {
  name: "inception_3b/5x5_reduce"
  type: "Convolution"
  bottom: "inception_3a/output"
  top: "inception_3b/5x5_reduce"
  param {
    lr_mult: 1
    decay_mult: 1
  }
  param {
    lr_mult: 2
    decay_mult: 0
  }
  convolution_param {
    num_output: 32
    kernel_size: 1
    weight_filler {
      type: "xavier"
    }
    bias_filler {
      type: "constant"
      value: 0.2
    }
  }
}
layer {
  name: "inception_3b/relu_5x5_reduce"
  type: "ReLU"
  bottom: "inception_3b/5x5_reduce"
  top: "inception_3b/5x5_reduce"
}
layer {
  name: "inception_3b/5x5"
  type: "Convolution"
  bottom: "inception_3b/5x5_reduce"
  top: "inception_3b/5x5"
  param {
    lr_mult: 1
    decay_mult: 1
  }
  param {
    lr_mult: 2
    decay_mult: 0
  }
  convolution_param {
    num_output: 96
    pad: 2
    kernel_size: 5
    weight_filler {
      type: "xavier"
    }
    bias_filler {
      type: "constant"
      value: 0.2
    }
  }
}
layer {
  name: "inception_3b/relu_5x5"
  type: "ReLU"
  bottom: "inception_3b/5x5"
  top: "inception_3b/5x5"
}
layer {
  name: "inception_3b/pool"
  type: "Pooling"
  bottom: "inception_3a/output"
  top: "inception_3b/pool"
  pooling_param {
    pool: MAX
    kernel_size: 3
    stride: 1
    pad: 1
  }
}
layer {
  name: "inception_3b/pool_proj"
  type: "Convolution"
  bottom: "inception_3b/pool"
  top: "inception_3b/pool_proj"
  param {
    lr_mult: 1
    decay_mult: 1
  }
  param {
    lr_mult: 2
    decay_mult: 0
  }
  convolution_param {
    num_output: 64
    kernel_size: 1
    weight_filler {
      type: "xavier"
    }
    bias_filler {
      type: "constant"
      value: 0.2
    }
  }
}
layer {
  name: "inception_3b/relu_pool_proj"
  type: "ReLU"
  bottom: "inception_3b/pool_proj"
  top: "inception_3b/pool_proj"
}
layer {
  name: "inception_3b/output"
  type: "Concat"
  bottom: "inception_3b/1x1"
  bottom: "inception_3b/3x3"
  bottom: "inception_3b/5x5"
  bottom: "inception_3b/pool_proj"
  top: "inception_3b/output"
}
layer {
  name: "pool3/3x3_s2"
  type: "Pooling"
  bottom: "inception_3b/output"
  top: "pool3/3x3_s2"
  pooling_param {
    pool: MAX
    kernel_size: 3
    stride: 2
  }
}
layer {
  name: "inception_4a/1x1"
  type: "Convolution"
  bottom: "pool3/3x3_s2"
  top: "inception_4a/1x1"
  param {
    lr_mult: 1
    decay_mult: 1
  }
  param {
    lr_mult: 2
    decay_mult: 0
  }
  convolution_param {
    num_output: 192
    kernel_size: 1
    weight_filler {
      type: "xavier"
    }
    bias_filler {
      type: "constant"
      value: 0.2
    }
  }
}
layer {
  name: "inception_4a/relu_1x1"
  type: "ReLU"
  bottom: "inception_4a/1x1"
  top: "inception_4a/1x1"
}
layer {
  name: "inception_4a/3x3_reduce"
  type: "Convolution"
  bottom: "pool3/3x3_s2"
  top: "inception_4a/3x3_reduce"
  param {
    lr_mult: 1
    decay_mult: 1
  }
  param {
    lr_mult: 2
    decay_mult: 0
  }
  convolution_param {
    num_output: 96
    kernel_size: 1
    weight_filler {
      type: "xavier"
    }
    bias_filler {
      type: "constant"
      value: 0.2
    }
  }
}
layer {
  name: "inception_4a/relu_3x3_reduce"
  type: "ReLU"
  bottom: "inception_4a/3x3_reduce"
  top: "inception_4a/3x3_reduce"
}
layer {
  name: "inception_4a/3x3"
  type: "Convolution"
  bottom: "inception_4a/3x3_reduce"
  top: "inception_4a/3x3"
  param {
    lr_mult: 1
    decay_mult: 1
  }
  param {
    lr_mult: 2
    decay_mult: 0
  }
  convolution_param {
    num_output: 208
    pad: 1
    kernel_size: 3
    weight_filler {
      type: "xavier"
    }
    bias_filler {
      type: "constant"
      value: 0.2
    }
  }
}
layer {
  name: "inception_4a/relu_3x3"
  type: "ReLU"
  bottom: "inception_4a/3x3"
  top: "inception_4a/3x3"
}
layer {
  name: "inception_4a/5x5_reduce"
  type: "Convolution"
  bottom: "pool3/3x3_s2"
  top: "inception_4a/5x5_reduce"
  param {
    lr_mult: 1
    decay_mult: 1
  }
  param {
    lr_mult: 2
    decay_mult: 0
  }
  convolution_param {
    num_output: 16
    kernel_size: 1
    weight_filler {
      type: "xavier"
    }
    bias_filler {
      type: "constant"
      value: 0.2
    }
  }
}
layer {
  name: "inception_4a/relu_5x5_reduce"
  type: "ReLU"
  bottom: "inception_4a/5x5_reduce"
  top: "inception_4a/5x5_reduce"
}
layer {
  name: "inception_4a/5x5"
  type: "Convolution"
  bottom: "inception_4a/5x5_reduce"
  top: "inception_4a/5x5"
  param {
    lr_mult: 1
    decay_mult: 1
  }
  param {
    lr_mult: 2
    decay_mult: 0
  }
  convolution_param {
    num_output: 48
    pad: 2
    kernel_size: 5
    weight_filler {
      type: "xavier"
    }
    bias_filler {
      type: "constant"
      value: 0.2
    }
  }
}
layer {
  name: "inception_4a/relu_5x5"
  type: "ReLU"
  bottom: "inception_4a/5x5"
  top: "inception_4a/5x5"
}
layer {
  name: "inception_4a/pool"
  type: "Pooling"
  bottom: "pool3/3x3_s2"
  top: "inception_4a/pool"
  pooling_param {
    pool: MAX
    kernel_size: 3
    stride: 1
    pad: 1
  }
}
layer {
  name: "inception_4a/pool_proj"
  type: "Convolution"
  bottom: "inception_4a/pool"
  top: "inception_4a/pool_proj"
  param {
    lr_mult: 1
    decay_mult: 1
  }
  param {
    lr_mult: 2
    decay_mult: 0
  }
  convolution_param {
    num_output: 64
    kernel_size: 1
    weight_filler {
      type: "xavier"
    }
    bias_filler {
      type: "constant"
      value: 0.2
    }
  }
}
layer {
  name: "inception_4a/relu_pool_proj"
  type: "ReLU"
  bottom: "inception_4a/pool_proj"
  top: "inception_4a/pool_proj"
}
layer {
  name: "inception_4a/output"
  type: "Concat"
  bottom: "inception_4a/1x1"
  bottom: "inception_4a/3x3"
  bottom: "inception_4a/5x5"
  bottom: "inception_4a/pool_proj"
  top: "inception_4a/output"
}
layer {
  name: "loss1/ave_pool"
  type: "Pooling"
  bottom: "inception_4a/output"
  top: "loss1/ave_pool"
  pooling_param {
    pool: AVE
    kernel_size: 5
    stride: 3
  }
}
layer {
  name: "loss1/conv"
  type: "Convolution"
  bottom: "loss1/ave_pool"
  top: "loss1/conv"
  param {
    lr_mult: 1
    decay_mult: 1
  }
  param {
    lr_mult: 2
    decay_mult: 0
  }
  convolution_param {
    num_output: 128
    kernel_size: 1
    weight_filler {
      type: "xavier"
    }
    bias_filler {
      type: "constant"
      value: 0.2
    }
  }
}
layer {
  name: "loss1/relu_conv"
  type: "ReLU"
  bottom: "loss1/conv"
  top: "loss1/conv"
}
layer {
  name: "loss1/fc"
  type: "InnerProduct"
  bottom: "loss1/conv"
  top: "loss1/fc"
  param {
    lr_mult: 1
    decay_mult: 1
  }
  param {
    lr_mult: 2
    decay_mult: 0
  }
  inner_product_param {
    num_output: 1024
    weight_filler {
      type: "xavier"
    }
    bias_filler {
      type: "constant"
      value: 0.2
    }
  }
}
layer {
  name: "loss1/relu_fc"
  type: "ReLU"
  bottom: "loss1/fc"
  top: "loss1/fc"
}
layer {
  name: "loss1/drop_fc"
  type: "Dropout"
  bottom: "loss1/fc"
  top: "loss1/fc"
  dropout_param {
    dropout_ratio: 0.7
  }
}
layer {
  name: "loss1/classifier"
  type: "InnerProduct"
  bottom: "loss1/fc"
  top: "loss1/classifier"
  param {
    lr_mult: 1
    decay_mult: 1
  }
  param {
    lr_mult: 2
    decay_mult: 0
  }
  inner_product_param {
    num_output: 1000
    weight_filler {
      type: "xavier"
    }
    bias_filler {
      type: "constant"
      value: 0
    }
  }
}
layer {
  name: "loss1/loss"
  type: "SoftmaxWithLoss"
  bottom: "loss1/classifier"
  bottom: "label"
  top: "loss1/loss1"
  loss_weight: 0.3
}
layer {
  name: "inception_4b/1x1"
  type: "Convolution"
  bottom: "inception_4a/output"
  top: "inception_4b/1x1"
  param {
    lr_mult: 1
    decay_mult: 1
  }
  param {
    lr_mult: 2
    decay_mult: 0
  }
  convolution_param {
    num_output: 160
    kernel_size: 1
    weight_filler {
      type: "xavier"
    }
    bias_filler {
      type: "constant"
      value: 0.2
    }
  }
}
layer {
  name: "inception_4b/relu_1x1"
  type: "ReLU"
  bottom: "inception_4b/1x1"
  top: "inception_4b/1x1"
}
layer {
  name: "inception_4b/3x3_reduce"
  type: "Convolution"
  bottom: "inception_4a/output"
  top: "inception_4b/3x3_reduce"
  param {
    lr_mult: 1
    decay_mult: 1
  }
  param {
    lr_mult: 2
    decay_mult: 0
  }
  convolution_param {
    num_output: 112
    kernel_size: 1
    weight_filler {
      type: "xavier"
    }
    bias_filler {
      type: "constant"
      value: 0.2
    }
  }
}
layer {
  name: "inception_4b/relu_3x3_reduce"
  type: "ReLU"
  bottom: "inception_4b/3x3_reduce"
  top: "inception_4b/3x3_reduce"
}
layer {
  name: "inception_4b/3x3"
  type: "Convolution"
  bottom: "inception_4b/3x3_reduce"
  top: "inception_4b/3x3"
  param {
    lr_mult: 1
    decay_mult: 1
  }
  param {
    lr_mult: 2
    decay_mult: 0
  }
  convolution_param {
    num_output: 224
    pad: 1
    kernel_size: 3
    weight_filler {
      type: "xavier"
    }
    bias_filler {
      type: "constant"
      value: 0.2
    }
  }
}
layer {
  name: "inception_4b/relu_3x3"
  type: "ReLU"
  bottom: "inception_4b/3x3"
  top: "inception_4b/3x3"
}
layer {
  name: "inception_4b/5x5_reduce"
  type: "Convolution"
  bottom: "inception_4a/output"
  top: "inception_4b/5x5_reduce"
  param {
    lr_mult: 1
    decay_mult: 1
  }
  param {
    lr_mult: 2
    decay_mult: 0
  }
  convolution_param {
    num_output: 24
    kernel_size: 1
    weight_filler {
      type: "xavier"
    }
    bias_filler {
      type: "constant"
      value: 0.2
    }
  }
}
layer {
  name: "inception_4b/relu_5x5_reduce"
  type: "ReLU"
  bottom: "inception_4b/5x5_reduce"
  top: "inception_4b/5x5_reduce"
}
layer {
  name: "inception_4b/5x5"
  type: "Convolution"
  bottom: "inception_4b/5x5_reduce"
  top: "inception_4b/5x5"
  param {
    lr_mult: 1
    decay_mult: 1
  }
  param {
    lr_mult: 2
    decay_mult: 0
  }
  convolution_param {
    num_output: 64
    pad: 2
    kernel_size: 5
    weight_filler {
      type: "xavier"
    }
    bias_filler {
      type: "constant"
      value: 0.2
    }
  }
}
layer {
  name: "inception_4b/relu_5x5"
  type: "ReLU"
  bottom: "inception_4b/5x5"
  top: "inception_4b/5x5"
}
layer {
  name: "inception_4b/pool"
  type: "Pooling"
  bottom: "inception_4a/output"
  top: "inception_4b/pool"
  pooling_param {
    pool: MAX
    kernel_size: 3
    stride: 1
    pad: 1
  }
}
layer {
  name: "inception_4b/pool_proj"
  type: "Convolution"
  bottom: "inception_4b/pool"
  top: "inception_4b/pool_proj"
  param {
    lr_mult: 1
    decay_mult: 1
  }
  param {
    lr_mult: 2
    decay_mult: 0
  }
  convolution_param {
    num_output: 64
    kernel_size: 1
    weight_filler {
      type: "xavier"
    }
    bias_filler {
      type: "constant"
      value: 0.2
    }
  }
}
layer {
  name: "inception_4b/relu_pool_proj"
  type: "ReLU"
  bottom: "inception_4b/pool_proj"
  top: "inception_4b/pool_proj"
}
layer {
  name: "inception_4b/output"
  type: "Concat"
  bottom: "inception_4b/1x1"
  bottom: "inception_4b/3x3"
  bottom: "inception_4b/5x5"
  bottom: "inception_4b/pool_proj"
  top: "inception_4b/output"
}
layer {
  name: "inception_4c/1x1"
  type: "Convolution"
  bottom: "inception_4b/output"
  top: "inception_4c/1x1"
  param {
    lr_mult: 1
    decay_mult: 1
  }
  param {
    lr_mult: 2
    decay_mult: 0
  }
  convolution_param {
    num_output: 128
    kernel_size: 1
    weight_filler {
      type: "xavier"
    }
    bias_filler {
      type: "constant"
      value: 0.2
    }
  }
}
layer {
  name: "inception_4c/relu_1x1"
  type: "ReLU"
  bottom: "inception_4c/1x1"
  top: "inception_4c/1x1"
}
layer {
  name: "inception_4c/3x3_reduce"
  type: "Convolution"
  bottom: "inception_4b/output"
  top: "inception_4c/3x3_reduce"
  param {
    lr_mult: 1
    decay_mult: 1
  }
  param {
    lr_mult: 2
    decay_mult: 0
  }
  convolution_param {
    num_output: 128
    kernel_size: 1
    weight_filler {
      type: "xavier"
    }
    bias_filler {
      type: "constant"
      value: 0.2
    }
  }
}
layer {
  name: "inception_4c/relu_3x3_reduce"
  type: "ReLU"
  bottom: "inception_4c/3x3_reduce"
  top: "inception_4c/3x3_reduce"
}
layer {
  name: "inception_4c/3x3"
  type: "Convolution"
  bottom: "inception_4c/3x3_reduce"
  top: "inception_4c/3x3"
  param {
    lr_mult: 1
    decay_mult: 1
  }
  param {
    lr_mult: 2
    decay_mult: 0
  }
  convolution_param {
    num_output: 256
    pad: 1
    kernel_size: 3
    weight_filler {
      type: "xavier"
    }
    bias_filler {
      type: "constant"
      value: 0.2
    }
  }
}
layer {
  name: "inception_4c/relu_3x3"
  type: "ReLU"
  bottom: "inception_4c/3x3"
  top: "inception_4c/3x3"
}
layer {
  name: "inception_4c/5x5_reduce"
  type: "Convolution"
  bottom: "inception_4b/output"
  top: "inception_4c/5x5_reduce"
  param {
    lr_mult: 1
    decay_mult: 1
  }
  param {
    lr_mult: 2
    decay_mult: 0
  }
  convolution_param {
    num_output: 24
    kernel_size: 1
    weight_filler {
      type: "xavier"
    }
    bias_filler {
      type: "constant"
      value: 0.2
    }
  }
}
layer {
  name: "inception_4c/relu_5x5_reduce"
  type: "ReLU"
  bottom: "inception_4c/5x5_reduce"
  top: "inception_4c/5x5_reduce"
}
layer {
  name: "inception_4c/5x5"
  type: "Convolution"
  bottom: "inception_4c/5x5_reduce"
  top: "inception_4c/5x5"
  param {
    lr_mult: 1
    decay_mult: 1
  }
  param {
    lr_mult: 2
    decay_mult: 0
  }
  convolution_param {
    num_output: 64
    pad: 2
    kernel_size: 5
    weight_filler {
      type: "xavier"
    }
    bias_filler {
      type: "constant"
      value: 0.2
    }
  }
}
layer {
  name: "inception_4c/relu_5x5"
  type: "ReLU"
  bottom: "inception_4c/5x5"
  top: "inception_4c/5x5"
}
layer {
  name: "inception_4c/pool"
  type: "Pooling"
  bottom: "inception_4b/output"
  top: "inception_4c/pool"
  pooling_param {
    pool: MAX
    kernel_size: 3
    stride: 1
    pad: 1
  }
}
layer {
  name: "inception_4c/pool_proj"
  type: "Convolution"
  bottom: "inception_4c/pool"
  top: "inception_4c/pool_proj"
  param {
    lr_mult: 1
    decay_mult: 1
  }
  param {
    lr_mult: 2
    decay_mult: 0
  }
  convolution_param {
    num_output: 64
    kernel_size: 1
    weight_filler {
      type: "xavier"
    }
    bias_filler {
      type: "constant"
      value: 0.2
    }
  }
}
layer {
  name: "inception_4c/relu_pool_proj"
  type: "ReLU"
  bottom: "inception_4c/pool_proj"
  top: "inception_4c/pool_proj"
}
layer {
  name: "inception_4c/output"
  type: "Concat"
  bottom: "inception_4c/1x1"
  bottom: "inception_4c/3x3"
  bottom: "inception_4c/5x5"
  bottom: "inception_4c/pool_proj"
  top: "inception_4c/output"
}
layer {
  name: "inception_4d/1x1"
  type: "Convolution"
  bottom: "inception_4c/output"
  top: "inception_4d/1x1"
  param {
    lr_mult: 1
    decay_mult: 1
  }
  param {
    lr_mult: 2
    decay_mult: 0
  }
  convolution_param {
    num_output: 112
    kernel_size: 1
    weight_filler {
      type: "xavier"
    }
    bias_filler {
      type: "constant"
      value: 0.2
    }
  }
}
layer {
  name: "inception_4d/relu_1x1"
  type: "ReLU"
  bottom: "inception_4d/1x1"
  top: "inception_4d/1x1"
}
layer {
  name: "inception_4d/3x3_reduce"
  type: "Convolution"
  bottom: "inception_4c/output"
  top: "inception_4d/3x3_reduce"
  param {
    lr_mult: 1
    decay_mult: 1
  }
  param {
    lr_mult: 2
    decay_mult: 0
  }
  convolution_param {
    num_output: 144
    kernel_size: 1
    weight_filler {
      type: "xavier"
    }
    bias_filler {
      type: "constant"
      value: 0.2
    }
  }
}
layer {
  name: "inception_4d/relu_3x3_reduce"
  type: "ReLU"
  bottom: "inception_4d/3x3_reduce"
  top: "inception_4d/3x3_reduce"
}
layer {
  name: "inception_4d/3x3"
  type: "Convolution"
  bottom: "inception_4d/3x3_reduce"
  top: "inception_4d/3x3"
  param {
    lr_mult: 1
    decay_mult: 1
  }
  param {
    lr_mult: 2
    decay_mult: 0
  }
  convolution_param {
    num_output: 288
    pad: 1
    kernel_size: 3
    weight_filler {
      type: "xavier"
    }
    bias_filler {
      type: "constant"
      value: 0.2
    }
  }
}
layer {
  name: "inception_4d/relu_3x3"
  type: "ReLU"
  bottom: "inception_4d/3x3"
  top: "inception_4d/3x3"
}
layer {
  name: "inception_4d/5x5_reduce"
  type: "Convolution"
  bottom: "inception_4c/output"
  top: "inception_4d/5x5_reduce"
  param {
    lr_mult: 1
    decay_mult: 1
  }
  param {
    lr_mult: 2
    decay_mult: 0
  }
  convolution_param {
    num_output: 32
    kernel_size: 1
    weight_filler {
      type: "xavier"
    }
    bias_filler {
      type: "constant"
      value: 0.2
    }
  }
}
layer {
  name: "inception_4d/relu_5x5_reduce"
  type: "ReLU"
  bottom: "inception_4d/5x5_reduce"
  top: "inception_4d/5x5_reduce"
}
layer {
  name: "inception_4d/5x5"
  type: "Convolution"
  bottom: "inception_4d/5x5_reduce"
  top: "inception_4d/5x5"
  param {
    lr_mult: 1
    decay_mult: 1
  }
  param {
    lr_mult: 2
    decay_mult: 0
  }
  convolution_param {
    num_output: 64
    pad: 2
    kernel_size: 5
    weight_filler {
      type: "xavier"
    }
    bias_filler {
      type: "constant"
      value: 0.2
    }
  }
}
layer {
  name: "inception_4d/relu_5x5"
  type: "ReLU"
  bottom: "inception_4d/5x5"
  top: "inception_4d/5x5"
}
layer {
  name: "inception_4d/pool"
  type: "Pooling"
  bottom: "inception_4c/output"
  top: "inception_4d/pool"
  pooling_param {
    pool: MAX
    kernel_size: 3
    stride: 1
    pad: 1
  }
}
layer {
  name: "inception_4d/pool_proj"
  type: "Convolution"
  bottom: "inception_4d/pool"
  top: "inception_4d/pool_proj"
  param {
    lr_mult: 1
    decay_mult: 1
  }
  param {
    lr_mult: 2
    decay_mult: 0
  }
  convolution_param {
    num_output: 64
    kernel_size: 1
    weight_filler {
      type: "xavier"
    }
    bias_filler {
      type: "constant"
      value: 0.2
    }
  }
}
layer {
  name: "inception_4d/relu_pool_proj"
  type: "ReLU"
  bottom: "inception_4d/pool_proj"
  top: "inception_4d/pool_proj"
}
layer {
  name: "inception_4d/output"
  type: "Concat"
  bottom: "inception_4d/1x1"
  bottom: "inception_4d/3x3"
  bottom: "inception_4d/5x5"
  bottom: "inception_4d/pool_proj"
  top: "inception_4d/output"
}
layer {
  name: "loss2/ave_pool"
  type: "Pooling"
  bottom: "inception_4d/output"
  top: "loss2/ave_pool"
  pooling_param {
    pool: AVE
    kernel_size: 5
    stride: 3
  }
}
layer {
  name: "loss2/conv"
  type: "Convolution"
  bottom: "loss2/ave_pool"
  top: "loss2/conv"
  param {
    lr_mult: 1
    decay_mult: 1
  }
  param {
    lr_mult: 2
    decay_mult: 0
  }
  convolution_param {
    num_output: 128
    kernel_size: 1
    weight_filler {
      type: "xavier"
    }
    bias_filler {
      type: "constant"
      value: 0.2
    }
  }
}
layer {
  name: "loss2/relu_conv"
  type: "ReLU"
  bottom: "loss2/conv"
  top: "loss2/conv"
}
layer {
  name: "loss2/fc"
  type: "InnerProduct"
  bottom: "loss2/conv"
  top: "loss2/fc"
  param {
    lr_mult: 1
    decay_mult: 1
  }
  param {
    lr_mult: 2
    decay_mult: 0
  }
  inner_product_param {
    num_output: 1024
    weight_filler {
      type: "xavier"
    }
    bias_filler {
      type: "constant"
      value: 0.2
    }
  }
}
layer {
  name: "loss2/relu_fc"
  type: "ReLU"
  bottom: "loss2/fc"
  top: "loss2/fc"
}
layer {
  name: "loss2/drop_fc"
  type: "Dropout"
  bottom: "loss2/fc"
  top: "loss2/fc"
  dropout_param {
    dropout_ratio: 0.7
  }
}
layer {
  name: "loss2/classifier"
  type: "InnerProduct"
  bottom: "loss2/fc"
  top: "loss2/classifier"
  param {
    lr_mult: 1
    decay_mult: 1
  }
  param {
    lr_mult: 2
    decay_mult: 0
  }
  inner_product_param {
    num_output: 1000
    weight_filler {
      type: "xavier"
    }
    bias_filler {
      type: "constant"
      value: 0
    }
  }
}
layer {
  name: "loss2/loss"
  type: "SoftmaxWithLoss"
  bottom: "loss2/classifier"
  bottom: "label"
  top: "loss2/loss1"
  loss_weight: 0.3
}
layer {
  name: "inception_4e/1x1"
  type: "Convolution"
  bottom: "inception_4d/output"
  top: "inception_4e/1x1"
  param {
    lr_mult: 1
    decay_mult: 1
  }
  param {
    lr_mult: 2
    decay_mult: 0
  }
  convolution_param {
    num_output: 256
    kernel_size: 1
    weight_filler {
      type: "xavier"
    }
    bias_filler {
      type: "constant"
      value: 0.2
    }
  }
}
layer {
  name: "inception_4e/relu_1x1"
  type: "ReLU"
  bottom: "inception_4e/1x1"
  top: "inception_4e/1x1"
}
layer {
  name: "inception_4e/3x3_reduce"
  type: "Convolution"
  bottom: "inception_4d/output"
  top: "inception_4e/3x3_reduce"
  param {
    lr_mult: 1
    decay_mult: 1
  }
  param {
    lr_mult: 2
    decay_mult: 0
  }
  convolution_param {
    num_output: 160
    kernel_size: 1
    weight_filler {
      type: "xavier"
    }
    bias_filler {
      type: "constant"
      value: 0.2
    }
  }
}
layer {
  name: "inception_4e/relu_3x3_reduce"
  type: "ReLU"
  bottom: "inception_4e/3x3_reduce"
  top: "inception_4e/3x3_reduce"
}
layer {
  name: "inception_4e/3x3"
  type: "Convolution"
  bottom: "inception_4e/3x3_reduce"
  top: "inception_4e/3x3"
  param {
    lr_mult: 1
    decay_mult: 1
  }
  param {
    lr_mult: 2
    decay_mult: 0
  }
  convolution_param {
    num_output: 320
    pad: 1
    kernel_size: 3
    weight_filler {
      type: "xavier"
    }
    bias_filler {
      type: "constant"
      value: 0.2
    }
  }
}
layer {
  name: "inception_4e/relu_3x3"
  type: "ReLU"
  bottom: "inception_4e/3x3"
  top: "inception_4e/3x3"
}
layer {
  name: "inception_4e/5x5_reduce"
  type: "Convolution"
  bottom: "inception_4d/output"
  top: "inception_4e/5x5_reduce"
  param {
    lr_mult: 1
    decay_mult: 1
  }
  param {
    lr_mult: 2
    decay_mult: 0
  }
  convolution_param {
    num_output: 32
    kernel_size: 1
    weight_filler {
      type: "xavier"
    }
    bias_filler {
      type: "constant"
      value: 0.2
    }
  }
}
layer {
  name: "inception_4e/relu_5x5_reduce"
  type: "ReLU"
  bottom: "inception_4e/5x5_reduce"
  top: "inception_4e/5x5_reduce"
}
layer {
  name: "inception_4e/5x5"
  type: "Convolution"
  bottom: "inception_4e/5x5_reduce"
  top: "inception_4e/5x5"
  param {
    lr_mult: 1
    decay_mult: 1
  }
  param {
    lr_mult: 2
    decay_mult: 0
  }
  convolution_param {
    num_output: 128
    pad: 2
    kernel_size: 5
    weight_filler {
      type: "xavier"
    }
    bias_filler {
      type: "constant"
      value: 0.2
    }
  }
}
layer {
  name: "inception_4e/relu_5x5"
  type: "ReLU"
  bottom: "inception_4e/5x5"
  top: "inception_4e/5x5"
}
layer {
  name: "inception_4e/pool"
  type: "Pooling"
  bottom: "inception_4d/output"
  top: "inception_4e/pool"
  pooling_param {
    pool: MAX
    kernel_size: 3
    stride: 1
I0823 17:27:15.470294 29136 layer_factory.hpp:75] Creating layer data
I0823 17:27:15.472488 29136 net.cpp:110] Creating Layer data
I0823 17:27:15.472518 29136 net.cpp:432] data -> data
I0823 17:27:15.472551 29136 net.cpp:432] data -> label
I0823 17:27:15.499742 29140 db_lmdb.cpp:22] Opened lmdb examples/imagenet/ilsvrc12_train_lmdb
I0823 17:27:15.539305 29136 data_layer.cpp:44] output data size: 32,3,224,224
I0823 17:27:15.601820 29136 net.cpp:155] Setting up data
I0823 17:27:15.601898 29136 net.cpp:163] Top shape: 32 3 224 224 (4816896)
I0823 17:27:15.601909 29136 net.cpp:163] Top shape: 32 (32)
I0823 17:27:15.601922 29136 layer_factory.hpp:75] Creating layer label_data_1_split
I0823 17:27:15.601939 29136 net.cpp:110] Creating Layer label_data_1_split
I0823 17:27:15.601949 29136 net.cpp:476] label_data_1_split <- label
I0823 17:27:15.601969 29136 net.cpp:432] label_data_1_split -> label_data_1_split_0
I0823 17:27:15.601984 29136 net.cpp:432] label_data_1_split -> label_data_1_split_1
I0823 17:27:15.602005 29136 net.cpp:432] label_data_1_split -> label_data_1_split_2
I0823 17:27:15.602020 29136 net.cpp:155] Setting up label_data_1_split
I0823 17:27:15.602030 29136 net.cpp:163] Top shape: 32 (32)
I0823 17:27:15.602037 29136 net.cpp:163] Top shape: 32 (32)
I0823 17:27:15.602046 29136 net.cpp:163] Top shape: 32 (32)
I0823 17:27:15.602083 29136 layer_factory.hpp:75] Creating layer conv1/7x7_s2
I0823 17:27:15.602108 29136 net.cpp:110] Creating Layer conv1/7x7_s2
I0823 17:27:15.602118 29136 net.cpp:476] conv1/7x7_s2 <- data
I0823 17:27:15.602130 29136 net.cpp:432] conv1/7x7_s2 -> conv1/7x7_s2
I0823 17:27:16.086026 29136 net.cpp:155] Setting up conv1/7x7_s2
I0823 17:27:16.086072 29136 net.cpp:163] Top shape: 32 64 112 112 (25690112)
I0823 17:27:16.086098 29136 layer_factory.hpp:75] Creating layer conv1/relu_7x7
I0823 17:27:16.086114 29136 net.cpp:110] Creating Layer conv1/relu_7x7
I0823 17:27:16.086122 29136 net.cpp:476] conv1/relu_7x7 <- conv1/7x7_s2
I0823 17:27:16.086133 29136 net.cpp:419] conv1/relu_7x7 -> conv1/7x7_s2 (in-place)
I0823 17:27:16.086200 29136 net.cpp:155] Setting up conv1/relu_7x7
I0823 17:27:16.086212 29136 net.cpp:163] Top shape: 32 64 112 112 (25690112)
I0823 17:27:16.086228 29136 layer_factory.hpp:75] Creating layer pool1/3x3_s2
I0823 17:27:16.086244 29136 net.cpp:110] Creating Layer pool1/3x3_s2
I0823 17:27:16.086252 29136 net.cpp:476] pool1/3x3_s2 <- conv1/7x7_s2
I0823 17:27:16.086261 29136 net.cpp:432] pool1/3x3_s2 -> pool1/3x3_s2
I0823 17:27:16.086488 29136 net.cpp:155] Setting up pool1/3x3_s2
I0823 17:27:16.086531 29136 net.cpp:163] Top shape: 32 64 56 56 (6422528)
I0823 17:27:16.086551 29136 layer_factory.hpp:75] Creating layer pool1/norm1
I0823 17:27:16.086565 29136 net.cpp:110] Creating Layer pool1/norm1
I0823 17:27:16.086572 29136 net.cpp:476] pool1/norm1 <- pool1/3x3_s2
I0823 17:27:16.086581 29136 net.cpp:432] pool1/norm1 -> pool1/norm1
I0823 17:27:16.086597 29136 net.cpp:155] Setting up pool1/norm1
I0823 17:27:16.086606 29136 net.cpp:163] Top shape: 32 64 56 56 (6422528)
I0823 17:27:16.086614 29136 layer_factory.hpp:75] Creating layer conv2/3x3_reduce
I0823 17:27:16.086627 29136 net.cpp:110] Creating Layer conv2/3x3_reduce
I0823 17:27:16.086633 29136 net.cpp:476] conv2/3x3_reduce <- pool1/norm1
I0823 17:27:16.086642 29136 net.cpp:432] conv2/3x3_reduce -> conv2/3x3_reduce
I0823 17:27:16.087358 29136 net.cpp:155] Setting up conv2/3x3_reduce
I0823 17:27:16.087374 29136 net.cpp:163] Top shape: 32 64 56 56 (6422528)
I0823 17:27:16.087396 29136 layer_factory.hpp:75] Creating layer conv2/relu_3x3_reduce
I0823 17:27:16.087406 29136 net.cpp:110] Creating Layer conv2/relu_3x3_reduce
I0823 17:27:16.087414 29136 net.cpp:476] conv2/relu_3x3_reduce <- conv2/3x3_reduce
I0823 17:27:16.087424 29136 net.cpp:419] conv2/relu_3x3_reduce -> conv2/3x3_reduce (in-place)
I0823 17:27:16.087482 29136 net.cpp:155] Setting up conv2/relu_3x3_reduce
I0823 17:27:16.087494 29136 net.cpp:163] Top shape: 32 64 56 56 (6422528)
I0823 17:27:16.087510 29136 layer_factory.hpp:75] Creating layer conv2/3x3
I0823 17:27:16.087522 29136 net.cpp:110] Creating Layer conv2/3x3
I0823 17:27:16.087529 29136 net.cpp:476] conv2/3x3 <- conv2/3x3_reduce
I0823 17:27:16.087539 29136 net.cpp:432] conv2/3x3 -> conv2/3x3
I0823 17:27:16.088706 29136 net.cpp:155] Setting up conv2/3x3
I0823 17:27:16.088722 29136 net.cpp:163] Top shape: 32 192 56 56 (19267584)
I0823 17:27:16.088744 29136 layer_factory.hpp:75] Creating layer conv2/relu_3x3
I0823 17:27:16.088754 29136 net.cpp:110] Creating Layer conv2/relu_3x3
I0823 17:27:16.088762 29136 net.cpp:476] conv2/relu_3x3 <- conv2/3x3
I0823 17:27:16.088770 29136 net.cpp:419] conv2/relu_3x3 -> conv2/3x3 (in-place)
I0823 17:27:16.088917 29136 net.cpp:155] Setting up conv2/relu_3x3
I0823 17:27:16.088932 29136 net.cpp:163] Top shape: 32 192 56 56 (19267584)
I0823 17:27:16.088948 29136 layer_factory.hpp:75] Creating layer conv2/norm2
I0823 17:27:16.088958 29136 net.cpp:110] Creating Layer conv2/norm2
I0823 17:27:16.088965 29136 net.cpp:476] conv2/norm2 <- conv2/3x3
I0823 17:27:16.088974 29136 net.cpp:432] conv2/norm2 -> conv2/norm2
I0823 17:27:16.088985 29136 net.cpp:155] Setting up conv2/norm2
I0823 17:27:16.088994 29136 net.cpp:163] Top shape: 32 192 56 56 (19267584)
I0823 17:27:16.089001 29136 layer_factory.hpp:75] Creating layer pool2/3x3_s2
I0823 17:27:16.089010 29136 net.cpp:110] Creating Layer pool2/3x3_s2
I0823 17:27:16.089047 29136 net.cpp:476] pool2/3x3_s2 <- conv2/norm2
I0823 17:27:16.089066 29136 net.cpp:432] pool2/3x3_s2 -> pool2/3x3_s2
I0823 17:27:16.089128 29136 net.cpp:155] Setting up pool2/3x3_s2
I0823 17:27:16.089138 29136 net.cpp:163] Top shape: 32 192 28 28 (4816896)
I0823 17:27:16.089154 29136 layer_factory.hpp:75] Creating layer pool2/3x3_s2_pool2/3x3_s2_0_split
I0823 17:27:16.089164 29136 net.cpp:110] Creating Layer pool2/3x3_s2_pool2/3x3_s2_0_split
I0823 17:27:16.089172 29136 net.cpp:476] pool2/3x3_s2_pool2/3x3_s2_0_split <- pool2/3x3_s2
I0823 17:27:16.089181 29136 net.cpp:432] pool2/3x3_s2_pool2/3x3_s2_0_split -> pool2/3x3_s2_pool2/3x3_s2_0_split_0
I0823 17:27:16.089191 29136 net.cpp:432] pool2/3x3_s2_pool2/3x3_s2_0_split -> pool2/3x3_s2_pool2/3x3_s2_0_split_1
I0823 17:27:16.089201 29136 net.cpp:432] pool2/3x3_s2_pool2/3x3_s2_0_split -> pool2/3x3_s2_pool2/3x3_s2_0_split_2
I0823 17:27:16.089220 29136 net.cpp:432] pool2/3x3_s2_pool2/3x3_s2_0_split -> pool2/3x3_s2_pool2/3x3_s2_0_split_3
I0823 17:27:16.089229 29136 net.cpp:155] Setting up pool2/3x3_s2_pool2/3x3_s2_0_split
I0823 17:27:16.089237 29136 net.cpp:163] Top shape: 32 192 28 28 (4816896)
I0823 17:27:16.089246 29136 net.cpp:163] Top shape: 32 192 28 28 (4816896)
I0823 17:27:16.089252 29136 net.cpp:163] Top shape: 32 192 28 28 (4816896)
I0823 17:27:16.089260 29136 net.cpp:163] Top shape: 32 192 28 28 (4816896)
I0823 17:27:16.089267 29136 layer_factory.hpp:75] Creating layer inception_3a/1x1
I0823 17:27:16.089277 29136 net.cpp:110] Creating Layer inception_3a/1x1
I0823 17:27:16.089283 29136 net.cpp:476] inception_3a/1x1 <- pool2/3x3_s2_pool2/3x3_s2_0_split_0
I0823 17:27:16.089293 29136 net.cpp:432] inception_3a/1x1 -> inception_3a/1x1
I0823 17:27:16.089965 29136 net.cpp:155] Setting up inception_3a/1x1
I0823 17:27:16.089980 29136 net.cpp:163] Top shape: 32 64 28 28 (1605632)
I0823 17:27:16.089992 29136 layer_factory.hpp:75] Creating layer inception_3a/relu_1x1
I0823 17:27:16.090000 29136 net.cpp:110] Creating Layer inception_3a/relu_1x1
I0823 17:27:16.090008 29136 net.cpp:476] inception_3a/relu_1x1 <- inception_3a/1x1
I0823 17:27:16.090016 29136 net.cpp:419] inception_3a/relu_1x1 -> inception_3a/1x1 (in-place)
I0823 17:27:16.090067 29136 net.cpp:155] Setting up inception_3a/relu_1x1
I0823 17:27:16.090078 29136 net.cpp:163] Top shape: 32 64 28 28 (1605632)
I0823 17:27:16.090085 29136 layer_factory.hpp:75] Creating layer inception_3a/3x3_reduce
I0823 17:27:16.090095 29136 net.cpp:110] Creating Layer inception_3a/3x3_reduce
I0823 17:27:16.090103 29136 net.cpp:476] inception_3a/3x3_reduce <- pool2/3x3_s2_pool2/3x3_s2_0_split_1
I0823 17:27:16.090112 29136 net.cpp:432] inception_3a/3x3_reduce -> inception_3a/3x3_reduce
I0823 17:27:16.090814 29136 net.cpp:155] Setting up inception_3a/3x3_reduce
I0823 17:27:16.090829 29136 net.cpp:163] Top shape: 32 96 28 28 (2408448)
I0823 17:27:16.090843 29136 layer_factory.hpp:75] Creating layer inception_3a/relu_3x3_reduce
I0823 17:27:16.090854 29136 net.cpp:110] Creating Layer inception_3a/relu_3x3_reduce
I0823 17:27:16.090862 29136 net.cpp:476] inception_3a/relu_3x3_reduce <- inception_3a/3x3_reduce
I0823 17:27:16.090872 29136 net.cpp:419] inception_3a/relu_3x3_reduce -> inception_3a/3x3_reduce (in-place)
I0823 17:27:16.090926 29136 net.cpp:155] Setting up inception_3a/relu_3x3_reduce
I0823 17:27:16.090937 29136 net.cpp:163] Top shape: 32 96 28 28 (2408448)
I0823 17:27:16.090945 29136 layer_factory.hpp:75] Creating layer inception_3a/3x3
I0823 17:27:16.090955 29136 net.cpp:110] Creating Layer inception_3a/3x3
I0823 17:27:16.090961 29136 net.cpp:476] inception_3a/3x3 <- inception_3a/3x3_reduce
I0823 17:27:16.090971 29136 net.cpp:432] inception_3a/3x3 -> inception_3a/3x3
I0823 17:27:16.091797 29136 net.cpp:155] Setting up inception_3a/3x3
I0823 17:27:16.091811 29136 net.cpp:163] Top shape: 32 128 28 28 (3211264)
I0823 17:27:16.091821 29136 layer_factory.hpp:75] Creating layer inception_3a/relu_3x3
I0823 17:27:16.091832 29136 net.cpp:110] Creating Layer inception_3a/relu_3x3
I0823 17:27:16.091840 29136 net.cpp:476] inception_3a/relu_3x3 <- inception_3a/3x3
I0823 17:27:16.091861 29136 net.cpp:419] inception_3a/relu_3x3 -> inception_3a/3x3 (in-place)
I0823 17:27:16.092011 29136 net.cpp:155] Setting up inception_3a/relu_3x3
I0823 17:27:16.092025 29136 net.cpp:163] Top shape: 32 128 28 28 (3211264)
I0823 17:27:16.092032 29136 layer_factory.hpp:75] Creating layer inception_3a/5x5_reduce
I0823 17:27:16.092042 29136 net.cpp:110] Creating Layer inception_3a/5x5_reduce
I0823 17:27:16.092051 29136 net.cpp:476] inception_3a/5x5_reduce <- pool2/3x3_s2_pool2/3x3_s2_0_split_2
I0823 17:27:16.092061 29136 net.cpp:432] inception_3a/5x5_reduce -> inception_3a/5x5_reduce
I0823 17:27:16.092366 29136 net.cpp:155] Setting up inception_3a/5x5_reduce
I0823 17:27:16.092380 29136 net.cpp:163] Top shape: 32 16 28 28 (401408)
I0823 17:27:16.092389 29136 layer_factory.hpp:75] Creating layer inception_3a/relu_5x5_reduce
I0823 17:27:16.092397 29136 net.cpp:110] Creating Layer inception_3a/relu_5x5_reduce
I0823 17:27:16.092406 29136 net.cpp:476] inception_3a/relu_5x5_reduce <- inception_3a/5x5_reduce
I0823 17:27:16.092413 29136 net.cpp:419] inception_3a/relu_5x5_reduce -> inception_3a/5x5_reduce (in-place)
I0823 17:27:16.092468 29136 net.cpp:155] Setting up inception_3a/relu_5x5_reduce
I0823 17:27:16.092478 29136 net.cpp:163] Top shape: 32 16 28 28 (401408)
I0823 17:27:16.092485 29136 layer_factory.hpp:75] Creating layer inception_3a/5x5
I0823 17:27:16.092496 29136 net.cpp:110] Creating Layer inception_3a/5x5
I0823 17:27:16.092504 29136 net.cpp:476] inception_3a/5x5 <- inception_3a/5x5_reduce
I0823 17:27:16.092514 29136 net.cpp:432] inception_3a/5x5 -> inception_3a/5x5
I0823 17:27:16.092865 29136 net.cpp:155] Setting up inception_3a/5x5
I0823 17:27:16.092878 29136 net.cpp:163] Top shape: 32 32 28 28 (802816)
I0823 17:27:16.092888 29136 layer_factory.hpp:75] Creating layer inception_3a/relu_5x5
I0823 17:27:16.092897 29136 net.cpp:110] Creating Layer inception_3a/relu_5x5
I0823 17:27:16.092905 29136 net.cpp:476] inception_3a/relu_5x5 <- inception_3a/5x5
I0823 17:27:16.092914 29136 net.cpp:419] inception_3a/relu_5x5 -> inception_3a/5x5 (in-place)
I0823 17:27:16.092969 29136 net.cpp:155] Setting up inception_3a/relu_5x5
I0823 17:27:16.092980 29136 net.cpp:163] Top shape: 32 32 28 28 (802816)
I0823 17:27:16.092988 29136 layer_factory.hpp:75] Creating layer inception_3a/pool
I0823 17:27:16.092994 29136 layer_factory.cpp:60] CUDNN does not support padding or multiple tops. Using Caffe's own pooling layer.
I0823 17:27:16.093004 29136 net.cpp:110] Creating Layer inception_3a/pool
I0823 17:27:16.093013 29136 net.cpp:476] inception_3a/pool <- pool2/3x3_s2_pool2/3x3_s2_0_split_3
I0823 17:27:16.093020 29136 net.cpp:432] inception_3a/pool -> inception_3a/pool
I0823 17:27:16.093031 29136 net.cpp:155] Setting up inception_3a/pool
I0823 17:27:16.093040 29136 net.cpp:163] Top shape: 32 192 28 28 (4816896)
I0823 17:27:16.093046 29136 layer_factory.hpp:75] Creating layer inception_3a/pool_proj
I0823 17:27:16.093058 29136 net.cpp:110] Creating Layer inception_3a/pool_proj
I0823 17:27:16.093065 29136 net.cpp:476] inception_3a/pool_proj <- inception_3a/pool
I0823 17:27:16.093075 29136 net.cpp:432] inception_3a/pool_proj -> inception_3a/pool_proj
I0823 17:27:16.093384 29136 net.cpp:155] Setting up inception_3a/pool_proj
I0823 17:27:16.093396 29136 net.cpp:163] Top shape: 32 32 28 28 (802816)
I0823 17:27:16.093410 29136 layer_factory.hpp:75] Creating layer inception_3a/relu_pool_proj
I0823 17:27:16.093420 29136 net.cpp:110] Creating Layer inception_3a/relu_pool_proj
I0823 17:27:16.093426 29136 net.cpp:476] inception_3a/relu_pool_proj <- inception_3a/pool_proj
I0823 17:27:16.093436 29136 net.cpp:419] inception_3a/relu_pool_proj -> inception_3a/pool_proj (in-place)
I0823 17:27:16.093580 29136 net.cpp:155] Setting up inception_3a/relu_pool_proj
I0823 17:27:16.093592 29136 net.cpp:163] Top shape: 32 32 28 28 (802816)
I0823 17:27:16.093600 29136 layer_factory.hpp:75] Creating layer inception_3a/output
I0823 17:27:16.093613 29136 net.cpp:110] Creating Layer inception_3a/output
I0823 17:27:16.093628 29136 net.cpp:476] inception_3a/output <- inception_3a/1x1
I0823 17:27:16.093637 29136 net.cpp:476] inception_3a/output <- inception_3a/3x3
I0823 17:27:16.093644 29136 net.cpp:476] inception_3a/output <- inception_3a/5x5
I0823 17:27:16.093652 29136 net.cpp:476] inception_3a/output <- inception_3a/pool_proj
I0823 17:27:16.093660 29136 net.cpp:432] inception_3a/output -> inception_3a/output
I0823 17:27:16.093673 29136 net.cpp:155] Setting up inception_3a/output
I0823 17:27:16.093683 29136 net.cpp:163] Top shape: 32 256 28 28 (6422528)
I0823 17:27:16.093688 29136 layer_factory.hpp:75] Creating layer inception_3a/output_inception_3a/output_0_split
I0823 17:27:16.093698 29136 net.cpp:110] Creating Layer inception_3a/output_inception_3a/output_0_split
I0823 17:27:16.093705 29136 net.cpp:476] inception_3a/output_inception_3a/output_0_split <- inception_3a/output
I0823 17:27:16.093714 29136 net.cpp:432] inception_3a/output_inception_3a/output_0_split -> inception_3a/output_inception_3a/output_0_split_0
I0823 17:27:16.093724 29136 net.cpp:432] inception_3a/output_inception_3a/output_0_split -> inception_3a/output_inception_3a/output_0_split_1
I0823 17:27:16.093734 29136 net.cpp:432] inception_3a/output_inception_3a/output_0_split -> inception_3a/output_inception_3a/output_0_split_2
I0823 17:27:16.093744 29136 net.cpp:432] inception_3a/output_inception_3a/output_0_split -> inception_3a/output_inception_3a/output_0_split_3
I0823 17:27:16.093755 29136 net.cpp:155] Setting up inception_3a/output_inception_3a/output_0_split
I0823 17:27:16.093761 29136 net.cpp:163] Top shape: 32 256 28 28 (6422528)
I0823 17:27:16.093770 29136 net.cpp:163] Top shape: 32 256 28 28 (6422528)
I0823 17:27:16.093776 29136 net.cpp:163] Top shape: 32 256 28 28 (6422528)
I0823 17:27:16.093783 29136 net.cpp:163] Top shape: 32 256 28 28 (6422528)
I0823 17:27:16.093789 29136 layer_factory.hpp:75] Creating layer inception_3b/1x1
I0823 17:27:16.093801 29136 net.cpp:110] Creating Layer inception_3b/1x1
I0823 17:27:16.093807 29136 net.cpp:476] inception_3b/1x1 <- inception_3a/output_inception_3a/output_0_split_0
I0823 17:27:16.093818 29136 net.cpp:432] inception_3b/1x1 -> inception_3b/1x1
I0823 17:27:16.094281 29136 net.cpp:155] Setting up inception_3b/1x1
I0823 17:27:16.094295 29136 net.cpp:163] Top shape: 32 128 28 28 (3211264)
I0823 17:27:16.094305 29136 layer_factory.hpp:75] Creating layer inception_3b/relu_1x1
I0823 17:27:16.094312 29136 net.cpp:110] Creating Layer inception_3b/relu_1x1
I0823 17:27:16.094319 29136 net.cpp:476] inception_3b/relu_1x1 <- inception_3b/1x1
I0823 17:27:16.094329 29136 net.cpp:419] inception_3b/relu_1x1 -> inception_3b/1x1 (in-place)
I0823 17:27:16.094384 29136 net.cpp:155] Setting up inception_3b/relu_1x1
I0823 17:27:16.094395 29136 net.cpp:163] Top shape: 32 128 28 28 (3211264)
I0823 17:27:16.094401 29136 layer_factory.hpp:75] Creating layer inception_3b/3x3_reduce
I0823 17:27:16.094413 29136 net.cpp:110] Creating Layer inception_3b/3x3_reduce
I0823 17:27:16.094420 29136 net.cpp:476] inception_3b/3x3_reduce <- inception_3a/output_inception_3a/output_0_split_1
I0823 17:27:16.094430 29136 net.cpp:432] inception_3b/3x3_reduce -> inception_3b/3x3_reduce
I0823 17:27:16.094867 29136 net.cpp:155] Setting up inception_3b/3x3_reduce
I0823 17:27:16.094882 29136 net.cpp:163] Top shape: 32 128 28 28 (3211264)
I0823 17:27:16.094892 29136 layer_factory.hpp:75] Creating layer inception_3b/relu_3x3_reduce
I0823 17:27:16.094900 29136 net.cpp:110] Creating Layer inception_3b/relu_3x3_reduce
I0823 17:27:16.094907 29136 net.cpp:476] inception_3b/relu_3x3_reduce <- inception_3b/3x3_reduce
I0823 17:27:16.094915 29136 net.cpp:419] inception_3b/relu_3x3_reduce -> inception_3b/3x3_reduce (in-place)
I0823 17:27:16.094969 29136 net.cpp:155] Setting up inception_3b/relu_3x3_reduce
I0823 17:27:16.094980 29136 net.cpp:163] Top shape: 32 128 28 28 (3211264)
I0823 17:27:16.094986 29136 layer_factory.hpp:75] Creating layer inception_3b/3x3
I0823 17:27:16.095000 29136 net.cpp:110] Creating Layer inception_3b/3x3
I0823 17:27:16.095006 29136 net.cpp:476] inception_3b/3x3 <- inception_3b/3x3_reduce
I0823 17:27:16.095026 29136 net.cpp:432] inception_3b/3x3 -> inception_3b/3x3
I0823 17:27:16.096799 29136 net.cpp:155] Setting up inception_3b/3x3
I0823 17:27:16.096814 29136 net.cpp:163] Top shape: 32 192 28 28 (4816896)
I0823 17:27:16.096825 29136 layer_factory.hpp:75] Creating layer inception_3b/relu_3x3
I0823 17:27:16.096835 29136 net.cpp:110] Creating Layer inception_3b/relu_3x3
I0823 17:27:16.096843 29136 net.cpp:476] inception_3b/relu_3x3 <- inception_3b/3x3
I0823 17:27:16.096853 29136 net.cpp:419] inception_3b/relu_3x3 -> inception_3b/3x3 (in-place)
I0823 17:27:16.096910 29136 net.cpp:155] Setting up inception_3b/relu_3x3
I0823 17:27:16.096921 29136 net.cpp:163] Top shape: 32 192 28 28 (4816896)
I0823 17:27:16.096928 29136 layer_factory.hpp:75] Creating layer inception_3b/5x5_reduce
I0823 17:27:16.096938 29136 net.cpp:110] Creating Layer inception_3b/5x5_reduce
I0823 17:27:16.096946 29136 net.cpp:476] inception_3b/5x5_reduce <- inception_3a/output_inception_3a/output_0_split_2
I0823 17:27:16.096957 29136 net.cpp:432] inception_3b/5x5_reduce -> inception_3b/5x5_reduce
I0823 17:27:16.097302 29136 net.cpp:155] Setting up inception_3b/5x5_reduce
I0823 17:27:16.097316 29136 net.cpp:163] Top shape: 32 32 28 28 (802816)
I0823 17:27:16.097336 29136 layer_factory.hpp:75] Creating layer inception_3b/relu_5x5_reduce
I0823 17:27:16.097353 29136 net.cpp:110] Creating Layer inception_3b/relu_5x5_reduce
I0823 17:27:16.097362 29136 net.cpp:476] inception_3b/relu_5x5_reduce <- inception_3b/5x5_reduce
I0823 17:27:16.097369 29136 net.cpp:419] inception_3b/relu_5x5_reduce -> inception_3b/5x5_reduce (in-place)
I0823 17:27:16.097532 29136 net.cpp:155] Setting up inception_3b/relu_5x5_reduce
I0823 17:27:16.097544 29136 net.cpp:163] Top shape: 32 32 28 28 (802816)
I0823 17:27:16.097559 29136 layer_factory.hpp:75] Creating layer inception_3b/5x5
I0823 17:27:16.097573 29136 net.cpp:110] Creating Layer inception_3b/5x5
I0823 17:27:16.097580 29136 net.cpp:476] inception_3b/5x5 <- inception_3b/5x5_reduce
I0823 17:27:16.097591 29136 net.cpp:432] inception_3b/5x5 -> inception_3b/5x5
I0823 17:27:16.098817 29136 net.cpp:155] Setting up inception_3b/5x5
I0823 17:27:16.098834 29136 net.cpp:163] Top shape: 32 96 28 28 (2408448)
I0823 17:27:16.098845 29136 layer_factory.hpp:75] Creating layer inception_3b/relu_5x5
I0823 17:27:16.098856 29136 net.cpp:110] Creating Layer inception_3b/relu_5x5
I0823 17:27:16.098865 29136 net.cpp:476] inception_3b/relu_5x5 <- inception_3b/5x5
I0823 17:27:16.098881 29136 net.cpp:419] inception_3b/relu_5x5 -> inception_3b/5x5 (in-place)
I0823 17:27:16.098948 29136 net.cpp:155] Setting up inception_3b/relu_5x5
I0823 17:27:16.098958 29136 net.cpp:163] Top shape: 32 96 28 28 (2408448)
I0823 17:27:16.098966 29136 layer_factory.hpp:75] Creating layer inception_3b/pool
I0823 17:27:16.098974 29136 layer_factory.cpp:60] CUDNN does not support padding or multiple tops. Using Caffe's own pooling layer.
I0823 17:27:16.098984 29136 net.cpp:110] Creating Layer inception_3b/pool
I0823 17:27:16.098991 29136 net.cpp:476] inception_3b/pool <- inception_3a/output_inception_3a/output_0_split_3
I0823 17:27:16.099002 29136 net.cpp:432] inception_3b/pool -> inception_3b/pool
I0823 17:27:16.099016 29136 net.cpp:155] Setting up inception_3b/pool
I0823 17:27:16.099025 29136 net.cpp:163] Top shape: 32 256 28 28 (6422528)
I0823 17:27:16.099032 29136 layer_factory.hpp:75] Creating layer inception_3b/pool_proj
I0823 17:27:16.099043 29136 net.cpp:110] Creating Layer inception_3b/pool_proj
I0823 17:27:16.099051 29136 net.cpp:476] inception_3b/pool_proj <- inception_3b/pool
I0823 17:27:16.099063 29136 net.cpp:432] inception_3b/pool_proj -> inception_3b/pool_proj
I0823 17:27:16.099722 29136 net.cpp:155] Setting up inception_3b/pool_proj
I0823 17:27:16.099742 29136 net.cpp:163] Top shape: 32 64 28 28 (1605632)
I0823 17:27:16.099755 29136 layer_factory.hpp:75] Creating layer inception_3b/relu_pool_proj
I0823 17:27:16.099766 29136 net.cpp:110] Creating Layer inception_3b/relu_pool_proj
I0823 17:27:16.099773 29136 net.cpp:476] inception_3b/relu_pool_proj <- inception_3b/pool_proj
I0823 17:27:16.099803 29136 net.cpp:419] inception_3b/relu_pool_proj -> inception_3b/pool_proj (in-place)
I0823 17:27:16.099869 29136 net.cpp:155] Setting up inception_3b/relu_pool_proj
I0823 17:27:16.099881 29136 net.cpp:163] Top shape: 32 64 28 28 (1605632)
I0823 17:27:16.099889 29136 layer_factory.hpp:75] Creating layer inception_3b/output
I0823 17:27:16.099899 29136 net.cpp:110] Creating Layer inception_3b/output
I0823 17:27:16.099906 29136 net.cpp:476] inception_3b/output <- inception_3b/1x1
I0823 17:27:16.099915 29136 net.cpp:476] inception_3b/output <- inception_3b/3x3
I0823 17:27:16.099922 29136 net.cpp:476] inception_3b/output <- inception_3b/5x5
I0823 17:27:16.099931 29136 net.cpp:476] inception_3b/output <- inception_3b/pool_proj
I0823 17:27:16.099939 29136 net.cpp:432] inception_3b/output -> inception_3b/output
I0823 17:27:16.099951 29136 net.cpp:155] Setting up inception_3b/output
I0823 17:27:16.099961 29136 net.cpp:163] Top shape: 32 480 28 28 (12042240)
I0823 17:27:16.099968 29136 layer_factory.hpp:75] Creating layer pool3/3x3_s2
I0823 17:27:16.099980 29136 net.cpp:110] Creating Layer pool3/3x3_s2
I0823 17:27:16.099987 29136 net.cpp:476] pool3/3x3_s2 <- inception_3b/output
I0823 17:27:16.099997 29136 net.cpp:432] pool3/3x3_s2 -> pool3/3x3_s2
I0823 17:27:16.100060 29136 net.cpp:155] Setting up pool3/3x3_s2
I0823 17:27:16.100072 29136 net.cpp:163] Top shape: 32 480 14 14 (3010560)
I0823 17:27:16.100080 29136 layer_factory.hpp:75] Creating layer pool3/3x3_s2_pool3/3x3_s2_0_split
I0823 17:27:16.100090 29136 net.cpp:110] Creating Layer pool3/3x3_s2_pool3/3x3_s2_0_split
I0823 17:27:16.100096 29136 net.cpp:476] pool3/3x3_s2_pool3/3x3_s2_0_split <- pool3/3x3_s2
I0823 17:27:16.100106 29136 net.cpp:432] pool3/3x3_s2_pool3/3x3_s2_0_split -> pool3/3x3_s2_pool3/3x3_s2_0_split_0
I0823 17:27:16.100116 29136 net.cpp:432] pool3/3x3_s2_pool3/3x3_s2_0_split -> pool3/3x3_s2_pool3/3x3_s2_0_split_1
I0823 17:27:16.100126 29136 net.cpp:432] pool3/3x3_s2_pool3/3x3_s2_0_split -> pool3/3x3_s2_pool3/3x3_s2_0_split_2
I0823 17:27:16.100137 29136 net.cpp:432] pool3/3x3_s2_pool3/3x3_s2_0_split -> pool3/3x3_s2_pool3/3x3_s2_0_split_3
I0823 17:27:16.100148 29136 net.cpp:155] Setting up pool3/3x3_s2_pool3/3x3_s2_0_split
I0823 17:27:16.100157 29136 net.cpp:163] Top shape: 32 480 14 14 (3010560)
I0823 17:27:16.100164 29136 net.cpp:163] Top shape: 32 480 14 14 (3010560)
I0823 17:27:16.100172 29136 net.cpp:163] Top shape: 32 480 14 14 (3010560)
I0823 17:27:16.100179 29136 net.cpp:163] Top shape: 32 480 14 14 (3010560)
I0823 17:27:16.100186 29136 layer_factory.hpp:75] Creating layer inception_4a/1x1
I0823 17:27:16.100198 29136 net.cpp:110] Creating Layer inception_4a/1x1
I0823 17:27:16.100206 29136 net.cpp:476] inception_4a/1x1 <- pool3/3x3_s2_pool3/3x3_s2_0_split_0
I0823 17:27:16.100217 29136 net.cpp:432] inception_4a/1x1 -> inception_4a/1x1
I0823 17:27:16.101030 29136 net.cpp:155] Setting up inception_4a/1x1
I0823 17:27:16.101045 29136 net.cpp:163] Top shape: 32 192 14 14 (1204224)
I0823 17:27:16.101057 29136 layer_factory.hpp:75] Creating layer inception_4a/relu_1x1
I0823 17:27:16.101065 29136 net.cpp:110] Creating Layer inception_4a/relu_1x1
I0823 17:27:16.101073 29136 net.cpp:476] inception_4a/relu_1x1 <- inception_4a/1x1
I0823 17:27:16.101083 29136 net.cpp:419] inception_4a/relu_1x1 -> inception_4a/1x1 (in-place)
I0823 17:27:16.101238 29136 net.cpp:155] Setting up inception_4a/relu_1x1
I0823 17:27:16.101253 29136 net.cpp:163] Top shape: 32 192 14 14 (1204224)
I0823 17:27:16.101260 29136 layer_factory.hpp:75] Creating layer inception_4a/3x3_reduce
I0823 17:27:16.101272 29136 net.cpp:110] Creating Layer inception_4a/3x3_reduce
I0823 17:27:16.101280 29136 net.cpp:476] inception_4a/3x3_reduce <- pool3/3x3_s2_pool3/3x3_s2_0_split_1
I0823 17:27:16.101292 29136 net.cpp:432] inception_4a/3x3_reduce -> inception_4a/3x3_reduce
I0823 17:27:16.101867 29136 net.cpp:155] Setting up inception_4a/3x3_reduce
I0823 17:27:16.101881 29136 net.cpp:163] Top shape: 32 96 14 14 (602112)
I0823 17:27:16.101909 29136 layer_factory.hpp:75] Creating layer inception_4a/relu_3x3_reduce
I0823 17:27:16.101920 29136 net.cpp:110] Creating Layer inception_4a/relu_3x3_reduce
I0823 17:27:16.101928 29136 net.cpp:476] inception_4a/relu_3x3_reduce <- inception_4a/3x3_reduce
I0823 17:27:16.101938 29136 net.cpp:419] inception_4a/relu_3x3_reduce -> inception_4a/3x3_reduce (in-place)
I0823 17:27:16.101999 29136 net.cpp:155] Setting up inception_4a/relu_3x3_reduce
I0823 17:27:16.102011 29136 net.cpp:163] Top shape: 32 96 14 14 (602112)
I0823 17:27:16.102020 29136 layer_factory.hpp:75] Creating layer inception_4a/3x3
I0823 17:27:16.102030 29136 net.cpp:110] Creating Layer inception_4a/3x3
I0823 17:27:16.102040 29136 net.cpp:476] inception_4a/3x3 <- inception_4a/3x3_reduce
I0823 17:27:16.102048 29136 net.cpp:432] inception_4a/3x3 -> inception_4a/3x3
I0823 17:27:16.103685 29136 net.cpp:155] Setting up inception_4a/3x3
I0823 17:27:16.103701 29136 net.cpp:163] Top shape: 32 208 14 14 (1304576)
I0823 17:27:16.103713 29136 layer_factory.hpp:75] Creating layer inception_4a/relu_3x3
I0823 17:27:16.103724 29136 net.cpp:110] Creating Layer inception_4a/relu_3x3
I0823 17:27:16.103732 29136 net.cpp:476] inception_4a/relu_3x3 <- inception_4a/3x3
I0823 17:27:16.103741 29136 net.cpp:419] inception_4a/relu_3x3 -> inception_4a/3x3 (in-place)
I0823 17:27:16.103802 29136 net.cpp:155] Setting up inception_4a/relu_3x3
I0823 17:27:16.103813 29136 net.cpp:163] Top shape: 32 208 14 14 (1304576)
I0823 17:27:16.103821 29136 layer_factory.hpp:75] Creating layer inception_4a/5x5_reduce
I0823 17:27:16.103832 29136 net.cpp:110] Creating Layer inception_4a/5x5_reduce
I0823 17:27:16.103840 29136 net.cpp:476] inception_4a/5x5_reduce <- pool3/3x3_s2_pool3/3x3_s2_0_split_2
I0823 17:27:16.103850 29136 net.cpp:432] inception_4a/5x5_reduce -> inception_4a/5x5_reduce
I0823 17:27:16.104199 29136 net.cpp:155] Setting up inception_4a/5x5_reduce
I0823 17:27:16.104212 29136 net.cpp:163] Top shape: 32 16 14 14 (100352)
I0823 17:27:16.104223 29136 layer_factory.hpp:75] Creating layer inception_4a/relu_5x5_reduce
I0823 17:27:16.104233 29136 net.cpp:110] Creating Layer inception_4a/relu_5x5_reduce
I0823 17:27:16.104240 29136 net.cpp:476] inception_4a/relu_5x5_reduce <- inception_4a/5x5_reduce
I0823 17:27:16.104250 29136 net.cpp:419] inception_4a/relu_5x5_reduce -> inception_4a/5x5_reduce (in-place)
I0823 17:27:16.104310 29136 net.cpp:155] Setting up inception_4a/relu_5x5_reduce
I0823 17:27:16.104321 29136 net.cpp:163] Top shape: 32 16 14 14 (100352)
I0823 17:27:16.104327 29136 layer_factory.hpp:75] Creating layer inception_4a/5x5
I0823 17:27:16.104339 29136 net.cpp:110] Creating Layer inception_4a/5x5
I0823 17:27:16.104347 29136 net.cpp:476] inception_4a/5x5 <- inception_4a/5x5_reduce
I0823 17:27:16.104358 29136 net.cpp:432] inception_4a/5x5 -> inception_4a/5x5
I0823 17:27:16.104761 29136 net.cpp:155] Setting up inception_4a/5x5
I0823 17:27:16.104774 29136 net.cpp:163] Top shape: 32 48 14 14 (301056)
I0823 17:27:16.104784 29136 layer_factory.hpp:75] Creating layer inception_4a/relu_5x5
I0823 17:27:16.104794 29136 net.cpp:110] Creating Layer inception_4a/relu_5x5
I0823 17:27:16.104800 29136 net.cpp:476] inception_4a/relu_5x5 <- inception_4a/5x5
I0823 17:27:16.104810 29136 net.cpp:419] inception_4a/relu_5x5 -> inception_4a/5x5 (in-place)
I0823 17:27:16.104955 29136 net.cpp:155] Setting up inception_4a/relu_5x5
I0823 17:27:16.104969 29136 net.cpp:163] Top shape: 32 48 14 14 (301056)
I0823 17:27:16.104976 29136 layer_factory.hpp:75] Creating layer inception_4a/pool
I0823 17:27:16.104984 29136 layer_factory.cpp:60] CUDNN does not support padding or multiple tops. Using Caffe's own pooling layer.
I0823 17:27:16.104991 29136 net.cpp:110] Creating Layer inception_4a/pool
I0823 17:27:16.105000 29136 net.cpp:476] inception_4a/pool <- pool3/3x3_s2_pool3/3x3_s2_0_split_3
I0823 17:27:16.105010 29136 net.cpp:432] inception_4a/pool -> inception_4a/pool
I0823 17:27:16.105021 29136 net.cpp:155] Setting up inception_4a/pool
I0823 17:27:16.105031 29136 net.cpp:163] Top shape: 32 480 14 14 (3010560)
I0823 17:27:16.105047 29136 layer_factory.hpp:75] Creating layer inception_4a/pool_proj
I0823 17:27:16.105060 29136 net.cpp:110] Creating Layer inception_4a/pool_proj
I0823 17:27:16.105068 29136 net.cpp:476] inception_4a/pool_proj <- inception_4a/pool
I0823 17:27:16.105077 29136 net.cpp:432] inception_4a/pool_proj -> inception_4a/pool_proj
I0823 17:27:16.105540 29136 net.cpp:155] Setting up inception_4a/pool_proj
I0823 17:27:16.105556 29136 net.cpp:163] Top shape: 32 64 14 14 (401408)
I0823 17:27:16.105566 29136 layer_factory.hpp:75] Creating layer inception_4a/relu_pool_proj
I0823 17:27:16.105574 29136 net.cpp:110] Creating Layer inception_4a/relu_pool_proj
I0823 17:27:16.105582 29136 net.cpp:476] inception_4a/relu_pool_proj <- inception_4a/pool_proj
I0823 17:27:16.105590 29136 net.cpp:419] inception_4a/relu_pool_proj -> inception_4a/pool_proj (in-place)
I0823 17:27:16.105649 29136 net.cpp:155] Setting up inception_4a/relu_pool_proj
I0823 17:27:16.105660 29136 net.cpp:163] Top shape: 32 64 14 14 (401408)
I0823 17:27:16.105667 29136 layer_factory.hpp:75] Creating layer inception_4a/output
I0823 17:27:16.105677 29136 net.cpp:110] Creating Layer inception_4a/output
I0823 17:27:16.105685 29136 net.cpp:476] inception_4a/output <- inception_4a/1x1
I0823 17:27:16.105692 29136 net.cpp:476] inception_4a/output <- inception_4a/3x3
I0823 17:27:16.105700 29136 net.cpp:476] inception_4a/output <- inception_4a/5x5
I0823 17:27:16.105707 29136 net.cpp:476] inception_4a/output <- inception_4a/pool_proj
I0823 17:27:16.105716 29136 net.cpp:432] inception_4a/output -> inception_4a/output
I0823 17:27:16.105726 29136 net.cpp:155] Setting up inception_4a/output
I0823 17:27:16.105736 29136 net.cpp:163] Top shape: 32 512 14 14 (3211264)
I0823 17:27:16.105741 29136 layer_factory.hpp:75] Creating layer inception_4a/output_inception_4a/output_0_split
I0823 17:27:16.105751 29136 net.cpp:110] Creating Layer inception_4a/output_inception_4a/output_0_split
I0823 17:27:16.105757 29136 net.cpp:476] inception_4a/output_inception_4a/output_0_split <- inception_4a/output
I0823 17:27:16.105768 29136 net.cpp:432] inception_4a/output_inception_4a/output_0_split -> inception_4a/output_inception_4a/output_0_split_0
I0823 17:27:16.105779 29136 net.cpp:432] inception_4a/output_inception_4a/output_0_split -> inception_4a/output_inception_4a/output_0_split_1
I0823 17:27:16.105789 29136 net.cpp:432] inception_4a/output_inception_4a/output_0_split -> inception_4a/output_inception_4a/output_0_split_2
I0823 17:27:16.105799 29136 net.cpp:432] inception_4a/output_inception_4a/output_0_split -> inception_4a/output_inception_4a/output_0_split_3
I0823 17:27:16.105809 29136 net.cpp:432] inception_4a/output_inception_4a/output_0_split -> inception_4a/output_inception_4a/output_0_split_4
I0823 17:27:16.105820 29136 net.cpp:155] Setting up inception_4a/output_inception_4a/output_0_split
I0823 17:27:16.105829 29136 net.cpp:163] Top shape: 32 512 14 14 (3211264)
I0823 17:27:16.105839 29136 net.cpp:163] Top shape: 32 512 14 14 (3211264)
I0823 17:27:16.105845 29136 net.cpp:163] Top shape: 32 512 14 14 (3211264)
I0823 17:27:16.105852 29136 net.cpp:163] Top shape: 32 512 14 14 (3211264)
I0823 17:27:16.105860 29136 net.cpp:163] Top shape: 32 512 14 14 (3211264)
I0823 17:27:16.105866 29136 layer_factory.hpp:75] Creating layer loss1/ave_pool
I0823 17:27:16.105875 29136 net.cpp:110] Creating Layer loss1/ave_pool
I0823 17:27:16.105882 29136 net.cpp:476] loss1/ave_pool <- inception_4a/output_inception_4a/output_0_split_0
I0823 17:27:16.105891 29136 net.cpp:432] loss1/ave_pool -> loss1/ave_pool
I0823 17:27:16.105947 29136 net.cpp:155] Setting up loss1/ave_pool
I0823 17:27:16.105958 29136 net.cpp:163] Top shape: 32 512 4 4 (262144)
I0823 17:27:16.105965 29136 layer_factory.hpp:75] Creating layer loss1/conv
I0823 17:27:16.105976 29136 net.cpp:110] Creating Layer loss1/conv
I0823 17:27:16.105984 29136 net.cpp:476] loss1/conv <- loss1/ave_pool
I0823 17:27:16.105993 29136 net.cpp:432] loss1/conv -> loss1/conv
I0823 17:27:16.106636 29136 net.cpp:155] Setting up loss1/conv
I0823 17:27:16.106648 29136 net.cpp:163] Top shape: 32 128 4 4 (65536)
I0823 17:27:16.106668 29136 layer_factory.hpp:75] Creating layer loss1/relu_conv
I0823 17:27:16.106679 29136 net.cpp:110] Creating Layer loss1/relu_conv
I0823 17:27:16.106686 29136 net.cpp:476] loss1/relu_conv <- loss1/conv
I0823 17:27:16.106695 29136 net.cpp:419] loss1/relu_conv -> loss1/conv (in-place)
I0823 17:27:16.106844 29136 net.cpp:155] Setting up loss1/relu_conv
I0823 17:27:16.106858 29136 net.cpp:163] Top shape: 32 128 4 4 (65536)
I0823 17:27:16.106865 29136 layer_factory.hpp:75] Creating layer loss1/fc
I0823 17:27:16.106879 29136 net.cpp:110] Creating Layer loss1/fc
I0823 17:27:16.106886 29136 net.cpp:476] loss1/fc <- loss1/conv
I0823 17:27:16.106897 29136 net.cpp:432] loss1/fc -> loss1/fc
I0823 17:27:16.232074 29136 net.cpp:155] Setting up loss1/fc
I0823 17:27:16.232120 29136 net.cpp:163] Top shape: 32 1024 (32768)
I0823 17:27:16.232136 29136 layer_factory.hpp:75] Creating layer loss1/relu_fc
I0823 17:27:16.232151 29136 net.cpp:110] Creating Layer loss1/relu_fc
I0823 17:27:16.232159 29136 net.cpp:476] loss1/relu_fc <- loss1/fc
I0823 17:27:16.232172 29136 net.cpp:419] loss1/relu_fc -> loss1/fc (in-place)
I0823 17:27:16.232266 29136 net.cpp:155] Setting up loss1/relu_fc
I0823 17:27:16.232278 29136 net.cpp:163] Top shape: 32 1024 (32768)
I0823 17:27:16.232285 29136 layer_factory.hpp:75] Creating layer loss1/drop_fc
I0823 17:27:16.232314 29136 net.cpp:110] Creating Layer loss1/drop_fc
I0823 17:27:16.232322 29136 net.cpp:476] loss1/drop_fc <- loss1/fc
I0823 17:27:16.232333 29136 net.cpp:419] loss1/drop_fc -> loss1/fc (in-place)
I0823 17:27:16.232360 29136 net.cpp:155] Setting up loss1/drop_fc
I0823 17:27:16.232370 29136 net.cpp:163] Top shape: 32 1024 (32768)
I0823 17:27:16.232378 29136 layer_factory.hpp:75] Creating layer loss1/classifier
I0823 17:27:16.232389 29136 net.cpp:110] Creating Layer loss1/classifier
I0823 17:27:16.232399 29136 net.cpp:476] loss1/classifier <- loss1/fc
I0823 17:27:16.232410 29136 net.cpp:432] loss1/classifier -> loss1/classifier
I0823 17:27:16.238668 29136 net.cpp:155] Setting up loss1/classifier
I0823 17:27:16.238698 29136 net.cpp:163] Top shape: 32 1000 (32000)
I0823 17:27:16.238718 29136 layer_factory.hpp:75] Creating layer loss1/loss
I0823 17:27:16.239079 29136 net.cpp:110] Creating Layer loss1/loss
I0823 17:27:16.239106 29136 net.cpp:476] loss1/loss <- loss1/classifier
I0823 17:27:16.239135 29136 net.cpp:476] loss1/loss <- label_data_1_split_0
I0823 17:27:16.239162 29136 net.cpp:432] loss1/loss -> loss1/loss1
I0823 17:27:16.239181 29136 layer_factory.hpp:75] Creating layer loss1/loss
I0823 17:27:16.239650 29136 net.cpp:155] Setting up loss1/loss
I0823 17:27:16.239666 29136 net.cpp:163] Top shape: (1)
I0823 17:27:16.239681 29136 net.cpp:168]     with loss weight 0.3
I0823 17:27:16.239711 29136 layer_factory.hpp:75] Creating layer inception_4b/1x1
I0823 17:27:16.239723 29136 net.cpp:110] Creating Layer inception_4b/1x1
I0823 17:27:16.239732 29136 net.cpp:476] inception_4b/1x1 <- inception_4a/output_inception_4a/output_0_split_1
I0823 17:27:16.239742 29136 net.cpp:432] inception_4b/1x1 -> inception_4b/1x1
I0823 17:27:16.240510 29136 net.cpp:155] Setting up inception_4b/1x1
I0823 17:27:16.240525 29136 net.cpp:163] Top shape: 32 160 14 14 (1003520)
I0823 17:27:16.240536 29136 layer_factory.hpp:75] Creating layer inception_4b/relu_1x1
I0823 17:27:16.240547 29136 net.cpp:110] Creating Layer inception_4b/relu_1x1
I0823 17:27:16.240556 29136 net.cpp:476] inception_4b/relu_1x1 <- inception_4b/1x1
I0823 17:27:16.240564 29136 net.cpp:419] inception_4b/relu_1x1 -> inception_4b/1x1 (in-place)
I0823 17:27:16.240628 29136 net.cpp:155] Setting up inception_4b/relu_1x1
I0823 17:27:16.240641 29136 net.cpp:163] Top shape: 32 160 14 14 (1003520)
I0823 17:27:16.240648 29136 layer_factory.hpp:75] Creating layer inception_4b/3x3_reduce
I0823 17:27:16.240660 29136 net.cpp:110] Creating Layer inception_4b/3x3_reduce
I0823 17:27:16.240669 29136 net.cpp:476] inception_4b/3x3_reduce <- inception_4a/output_inception_4a/output_0_split_2
I0823 17:27:16.240679 29136 net.cpp:432] inception_4b/3x3_reduce -> inception_4b/3x3_reduce
I0823 17:27:16.241291 29136 net.cpp:155] Setting up inception_4b/3x3_reduce
I0823 17:27:16.241305 29136 net.cpp:163] Top shape: 32 112 14 14 (702464)
I0823 17:27:16.241315 29136 layer_factory.hpp:75] Creating layer inception_4b/relu_3x3_reduce
I0823 17:27:16.241327 29136 net.cpp:110] Creating Layer inception_4b/relu_3x3_reduce
I0823 17:27:16.241334 29136 net.cpp:476] inception_4b/relu_3x3_reduce <- inception_4b/3x3_reduce
I0823 17:27:16.241343 29136 net.cpp:419] inception_4b/relu_3x3_reduce -> inception_4b/3x3_reduce (in-place)
I0823 17:27:16.241490 29136 net.cpp:155] Setting up inception_4b/relu_3x3_reduce
I0823 17:27:16.241504 29136 net.cpp:163] Top shape: 32 112 14 14 (702464)
I0823 17:27:16.241513 29136 layer_factory.hpp:75] Creating layer inception_4b/3x3
I0823 17:27:16.241523 29136 net.cpp:110] Creating Layer inception_4b/3x3
I0823 17:27:16.241531 29136 net.cpp:476] inception_4b/3x3 <- inception_4b/3x3_reduce
I0823 17:27:16.241541 29136 net.cpp:432] inception_4b/3x3 -> inception_4b/3x3
I0823 17:27:16.243327 29136 net.cpp:155] Setting up inception_4b/3x3
I0823 17:27:16.243342 29136 net.cpp:163] Top shape: 32 224 14 14 (1404928)
I0823 17:27:16.243353 29136 layer_factory.hpp:75] Creating layer inception_4b/relu_3x3
I0823 17:27:16.243362 29136 net.cpp:110] Creating Layer inception_4b/relu_3x3
I0823 17:27:16.243371 29136 net.cpp:476] inception_4b/relu_3x3 <- inception_4b/3x3
I0823 17:27:16.243379 29136 net.cpp:419] inception_4b/relu_3x3 -> inception_4b/3x3 (in-place)
I0823 17:27:16.243459 29136 net.cpp:155] Setting up inception_4b/relu_3x3
I0823 17:27:16.243473 29136 net.cpp:163] Top shape: 32 224 14 14 (1404928)
I0823 17:27:16.243480 29136 layer_factory.hpp:75] Creating layer inception_4b/5x5_reduce
I0823 17:27:16.243490 29136 net.cpp:110] Creating Layer inception_4b/5x5_reduce
I0823 17:27:16.243499 29136 net.cpp:476] inception_4b/5x5_reduce <- inception_4a/output_inception_4a/output_0_split_3
I0823 17:27:16.243510 29136 net.cpp:432] inception_4b/5x5_reduce -> inception_4b/5x5_reduce
I0823 17:27:16.243975 29136 net.cpp:155] Setting up inception_4b/5x5_reduce
I0823 17:27:16.243991 29136 net.cpp:163] Top shape: 32 24 14 14 (150528)
I0823 17:27:16.244009 29136 layer_factory.hpp:75] Creating layer inception_4b/relu_5x5_reduce
I0823 17:27:16.244020 29136 net.cpp:110] Creating Layer inception_4b/relu_5x5_reduce
I0823 17:27:16.244030 29136 net.cpp:476] inception_4b/relu_5x5_reduce <- inception_4b/5x5_reduce
I0823 17:27:16.244047 29136 net.cpp:419] inception_4b/relu_5x5_reduce -> inception_4b/5x5_reduce (in-place)
I0823 17:27:16.244117 29136 net.cpp:155] Setting up inception_4b/relu_5x5_reduce
I0823 17:27:16.244129 29136 net.cpp:163] Top shape: 32 24 14 14 (150528)
I0823 17:27:16.244145 29136 layer_factory.hpp:75] Creating layer inception_4b/5x5
I0823 17:27:16.244158 29136 net.cpp:110] Creating Layer inception_4b/5x5
I0823 17:27:16.244166 29136 net.cpp:476] inception_4b/5x5 <- inception_4b/5x5_reduce
I0823 17:27:16.244176 29136 net.cpp:432] inception_4b/5x5 -> inception_4b/5x5
I0823 17:27:16.244748 29136 net.cpp:155] Setting up inception_4b/5x5
I0823 17:27:16.244763 29136 net.cpp:163] Top shape: 32 64 14 14 (401408)
I0823 17:27:16.244776 29136 layer_factory.hpp:75] Creating layer inception_4b/relu_5x5
I0823 17:27:16.244786 29136 net.cpp:110] Creating Layer inception_4b/relu_5x5
I0823 17:27:16.244794 29136 net.cpp:476] inception_4b/relu_5x5 <- inception_4b/5x5
I0823 17:27:16.244806 29136 net.cpp:419] inception_4b/relu_5x5 -> inception_4b/5x5 (in-place)
I0823 17:27:16.244869 29136 net.cpp:155] Setting up inception_4b/relu_5x5
I0823 17:27:16.244882 29136 net.cpp:163] Top shape: 32 64 14 14 (401408)
I0823 17:27:16.244890 29136 layer_factory.hpp:75] Creating layer inception_4b/pool
I0823 17:27:16.244899 29136 layer_factory.cpp:60] CUDNN does not support padding or multiple tops. Using Caffe's own pooling layer.
I0823 17:27:16.244909 29136 net.cpp:110] Creating Layer inception_4b/pool
I0823 17:27:16.244916 29136 net.cpp:476] inception_4b/pool <- inception_4a/output_inception_4a/output_0_split_4
I0823 17:27:16.244940 29136 net.cpp:432] inception_4b/pool -> inception_4b/pool
I0823 17:27:16.244963 29136 net.cpp:155] Setting up inception_4b/pool
I0823 17:27:16.244974 29136 net.cpp:163] Top shape: 32 512 14 14 (3211264)
I0823 17:27:16.244982 29136 layer_factory.hpp:75] Creating layer inception_4b/pool_proj
I0823 17:27:16.244993 29136 net.cpp:110] Creating Layer inception_4b/pool_proj
I0823 17:27:16.245002 29136 net.cpp:476] inception_4b/pool_proj <- inception_4b/pool
I0823 17:27:16.245012 29136 net.cpp:432] inception_4b/pool_proj -> inception_4b/pool_proj
I0823 17:27:16.245503 29136 net.cpp:155] Setting up inception_4b/pool_proj
I0823 17:27:16.245518 29136 net.cpp:163] Top shape: 32 64 14 14 (401408)
I0823 17:27:16.245529 29136 layer_factory.hpp:75] Creating layer inception_4b/relu_pool_proj
I0823 17:27:16.245539 29136 net.cpp:110] Creating Layer inception_4b/relu_pool_proj
I0823 17:27:16.245548 29136 net.cpp:476] inception_4b/relu_pool_proj <- inception_4b/pool_proj
I0823 17:27:16.245558 29136 net.cpp:419] inception_4b/relu_pool_proj -> inception_4b/pool_proj (in-place)
I0823 17:27:16.245718 29136 net.cpp:155] Setting up inception_4b/relu_pool_proj
I0823 17:27:16.245730 29136 net.cpp:163] Top shape: 32 64 14 14 (401408)
I0823 17:27:16.245739 29136 layer_factory.hpp:75] Creating layer inception_4b/output
I0823 17:27:16.245751 29136 net.cpp:110] Creating Layer inception_4b/output
I0823 17:27:16.245759 29136 net.cpp:476] inception_4b/output <- inception_4b/1x1
I0823 17:27:16.245767 29136 net.cpp:476] inception_4b/output <- inception_4b/3x3
I0823 17:27:16.245776 29136 net.cpp:476] inception_4b/output <- inception_4b/5x5
I0823 17:27:16.245784 29136 net.cpp:476] inception_4b/output <- inception_4b/pool_proj
I0823 17:27:16.245792 29136 net.cpp:432] inception_4b/output -> inception_4b/output
I0823 17:27:16.245805 29136 net.cpp:155] Setting up inception_4b/output
I0823 17:27:16.245815 29136 net.cpp:163] Top shape: 32 512 14 14 (3211264)
I0823 17:27:16.245821 29136 layer_factory.hpp:75] Creating layer inception_4b/output_inception_4b/output_0_split
I0823 17:27:16.245833 29136 net.cpp:110] Creating Layer inception_4b/output_inception_4b/output_0_split
I0823 17:27:16.245841 29136 net.cpp:476] inception_4b/output_inception_4b/output_0_split <- inception_4b/output
I0823 17:27:16.245851 29136 net.cpp:432] inception_4b/output_inception_4b/output_0_split -> inception_4b/output_inception_4b/output_0_split_0
I0823 17:27:16.245862 29136 net.cpp:432] inception_4b/output_inception_4b/output_0_split -> inception_4b/output_inception_4b/output_0_split_1
I0823 17:27:16.245872 29136 net.cpp:432] inception_4b/output_inception_4b/output_0_split -> inception_4b/output_inception_4b/output_0_split_2
I0823 17:27:16.245883 29136 net.cpp:432] inception_4b/output_inception_4b/output_0_split -> inception_4b/output_inception_4b/output_0_split_3
I0823 17:27:16.245894 29136 net.cpp:155] Setting up inception_4b/output_inception_4b/output_0_split
I0823 17:27:16.245903 29136 net.cpp:163] Top shape: 32 512 14 14 (3211264)
I0823 17:27:16.245910 29136 net.cpp:163] Top shape: 32 512 14 14 (3211264)
I0823 17:27:16.245918 29136 net.cpp:163] Top shape: 32 512 14 14 (3211264)
I0823 17:27:16.245926 29136 net.cpp:163] Top shape: 32 512 14 14 (3211264)
I0823 17:27:16.245934 29136 layer_factory.hpp:75] Creating layer inception_4c/1x1
I0823 17:27:16.245945 29136 net.cpp:110] Creating Layer inception_4c/1x1
I0823 17:27:16.245954 29136 net.cpp:476] inception_4c/1x1 <- inception_4b/output_inception_4b/output_0_split_0
I0823 17:27:16.245965 29136 net.cpp:432] inception_4c/1x1 -> inception_4c/1x1
I0823 17:27:16.246644 29136 net.cpp:155] Setting up inception_4c/1x1
I0823 17:27:16.246659 29136 net.cpp:163] Top shape: 32 128 14 14 (802816)
I0823 17:27:16.246668 29136 layer_factory.hpp:75] Creating layer inception_4c/relu_1x1
I0823 17:27:16.246678 29136 net.cpp:110] Creating Layer inception_4c/relu_1x1
I0823 17:27:16.246686 29136 net.cpp:476] inception_4c/relu_1x1 <- inception_4c/1x1
I0823 17:27:16.246697 29136 net.cpp:419] inception_4c/relu_1x1 -> inception_4c/1x1 (in-place)
I0823 17:27:16.246770 29136 net.cpp:155] Setting up inception_4c/relu_1x1
I0823 17:27:16.246783 29136 net.cpp:163] Top shape: 32 128 14 14 (802816)
I0823 17:27:16.246790 29136 layer_factory.hpp:75] Creating layer inception_4c/3x3_reduce
I0823 17:27:16.246803 29136 net.cpp:110] Creating Layer inception_4c/3x3_reduce
I0823 17:27:16.246810 29136 net.cpp:476] inception_4c/3x3_reduce <- inception_4b/output_inception_4b/output_0_split_1
I0823 17:27:16.246821 29136 net.cpp:432] inception_4c/3x3_reduce -> inception_4c/3x3_reduce
I0823 17:27:16.247838 29136 net.cpp:155] Setting up inception_4c/3x3_reduce
I0823 17:27:16.247854 29136 net.cpp:163] Top shape: 32 128 14 14 (802816)
I0823 17:27:16.247874 29136 layer_factory.hpp:75] Creating layer inception_4c/relu_3x3_reduce
I0823 17:27:16.247885 29136 net.cpp:110] Creating Layer inception_4c/relu_3x3_reduce
I0823 17:27:16.247894 29136 net.cpp:476] inception_4c/relu_3x3_reduce <- inception_4c/3x3_reduce
I0823 17:27:16.247902 29136 net.cpp:419] inception_4c/relu_3x3_reduce -> inception_4c/3x3_reduce (in-place)
I0823 17:27:16.247966 29136 net.cpp:155] Setting up inception_4c/relu_3x3_reduce
I0823 17:27:16.247975 29136 net.cpp:163] Top shape: 32 128 14 14 (802816)
I0823 17:27:16.247983 29136 layer_factory.hpp:75] Creating layer inception_4c/3x3
I0823 17:27:16.247994 29136 net.cpp:110] Creating Layer inception_4c/3x3
I0823 17:27:16.248003 29136 net.cpp:476] inception_4c/3x3 <- inception_4c/3x3_reduce
I0823 17:27:16.248011 29136 net.cpp:432] inception_4c/3x3 -> inception_4c/3x3
I0823 17:27:16.250201 29136 net.cpp:155] Setting up inception_4c/3x3
I0823 17:27:16.250216 29136 net.cpp:163] Top shape: 32 256 14 14 (1605632)
I0823 17:27:16.250237 29136 layer_factory.hpp:75] Creating layer inception_4c/relu_3x3
I0823 17:27:16.250249 29136 net.cpp:110] Creating Layer inception_4c/relu_3x3
I0823 17:27:16.250257 29136 net.cpp:476] inception_4c/relu_3x3 <- inception_4c/3x3
I0823 17:27:16.250267 29136 net.cpp:419] inception_4c/relu_3x3 -> inception_4c/3x3 (in-place)
I0823 17:27:16.250327 29136 net.cpp:155] Setting up inception_4c/relu_3x3
I0823 17:27:16.250339 29136 net.cpp:163] Top shape: 32 256 14 14 (1605632)
I0823 17:27:16.250345 29136 layer_factory.hpp:75] Creating layer inception_4c/5x5_reduce
I0823 17:27:16.250357 29136 net.cpp:110] Creating Layer inception_4c/5x5_reduce
I0823 17:27:16.250365 29136 net.cpp:476] inception_4c/5x5_reduce <- inception_4b/output_inception_4b/output_0_split_2
I0823 17:27:16.250375 29136 net.cpp:432] inception_4c/5x5_reduce -> inception_4c/5x5_reduce
I0823 17:27:16.250741 29136 net.cpp:155] Setting up inception_4c/5x5_reduce
I0823 17:27:16.250754 29136 net.cpp:163] Top shape: 32 24 14 14 (150528)
I0823 17:27:16.250764 29136 layer_factory.hpp:75] Creating layer inception_4c/relu_5x5_reduce
I0823 17:27:16.250773 29136 net.cpp:110] Creating Layer inception_4c/relu_5x5_reduce
I0823 17:27:16.250782 29136 net.cpp:476] inception_4c/relu_5x5_reduce <- inception_4c/5x5_reduce
I0823 17:27:16.250789 29136 net.cpp:419] inception_4c/relu_5x5_reduce -> inception_4c/5x5_reduce (in-place)
I0823 17:27:16.250934 29136 net.cpp:155] Setting up inception_4c/relu_5x5_reduce
I0823 17:27:16.250947 29136 net.cpp:163] Top shape: 32 24 14 14 (150528)
I0823 17:27:16.250955 29136 layer_factory.hpp:75] Creating layer inception_4c/5x5
I0823 17:27:16.250967 29136 net.cpp:110] Creating Layer inception_4c/5x5
I0823 17:27:16.250974 29136 net.cpp:476] inception_4c/5x5 <- inception_4c/5x5_reduce
I0823 17:27:16.250984 29136 net.cpp:432] inception_4c/5x5 -> inception_4c/5x5
I0823 17:27:16.251482 29136 net.cpp:155] Setting up inception_4c/5x5
I0823 17:27:16.251495 29136 net.cpp:163] Top shape: 32 64 14 14 (401408)
I0823 17:27:16.251504 29136 layer_factory.hpp:75] Creating layer inception_4c/relu_5x5
I0823 17:27:16.251513 29136 net.cpp:110] Creating Layer inception_4c/relu_5x5
I0823 17:27:16.251520 29136 net.cpp:476] inception_4c/relu_5x5 <- inception_4c/5x5
I0823 17:27:16.251530 29136 net.cpp:419] inception_4c/relu_5x5 -> inception_4c/5x5 (in-place)
I0823 17:27:16.251593 29136 net.cpp:155] Setting up inception_4c/relu_5x5
I0823 17:27:16.251616 29136 net.cpp:163] Top shape: 32 64 14 14 (401408)
I0823 17:27:16.251622 29136 layer_factory.hpp:75] Creating layer inception_4c/pool
I0823 17:27:16.251631 29136 layer_factory.cpp:60] CUDNN does not support padding or multiple tops. Using Caffe's own pooling layer.
I0823 17:27:16.251638 29136 net.cpp:110] Creating Layer inception_4c/pool
I0823 17:27:16.251646 29136 net.cpp:476] inception_4c/pool <- inception_4b/output_inception_4b/output_0_split_3
I0823 17:27:16.251654 29136 net.cpp:432] inception_4c/pool -> inception_4c/pool
I0823 17:27:16.251667 29136 net.cpp:155] Setting up inception_4c/pool
I0823 17:27:16.251674 29136 net.cpp:163] Top shape: 32 512 14 14 (3211264)
I0823 17:27:16.251682 29136 layer_factory.hpp:75] Creating layer inception_4c/pool_proj
I0823 17:27:16.251693 29136 net.cpp:110] Creating Layer inception_4c/pool_proj
I0823 17:27:16.251700 29136 net.cpp:476] inception_4c/pool_proj <- inception_4c/pool
I0823 17:27:16.251710 29136 net.cpp:432] inception_4c/pool_proj -> inception_4c/pool_proj
I0823 17:27:16.252179 29136 net.cpp:155] Setting up inception_4c/pool_proj
I0823 17:27:16.252192 29136 net.cpp:163] Top shape: 32 64 14 14 (401408)
I0823 17:27:16.252202 29136 layer_factory.hpp:75] Creating layer inception_4c/relu_pool_proj
I0823 17:27:16.252212 29136 net.cpp:110] Creating Layer inception_4c/relu_pool_proj
I0823 17:27:16.252218 29136 net.cpp:476] inception_4c/relu_pool_proj <- inception_4c/pool_proj
I0823 17:27:16.252228 29136 net.cpp:419] inception_4c/relu_pool_proj -> inception_4c/pool_proj (in-place)
I0823 17:27:16.252284 29136 net.cpp:155] Setting up inception_4c/relu_pool_proj
I0823 17:27:16.252295 29136 net.cpp:163] Top shape: 32 64 14 14 (401408)
I0823 17:27:16.252300 29136 layer_factory.hpp:75] Creating layer inception_4c/output
I0823 17:27:16.252311 29136 net.cpp:110] Creating Layer inception_4c/output
I0823 17:27:16.252318 29136 net.cpp:476] inception_4c/output <- inception_4c/1x1
I0823 17:27:16.252326 29136 net.cpp:476] inception_4c/output <- inception_4c/3x3
I0823 17:27:16.252333 29136 net.cpp:476] inception_4c/output <- inception_4c/5x5
I0823 17:27:16.252341 29136 net.cpp:476] inception_4c/output <- inception_4c/pool_proj
I0823 17:27:16.252348 29136 net.cpp:432] inception_4c/output -> inception_4c/output
I0823 17:27:16.252358 29136 net.cpp:155] Setting up inception_4c/output
I0823 17:27:16.252367 29136 net.cpp:163] Top shape: 32 512 14 14 (3211264)
I0823 17:27:16.252373 29136 layer_factory.hpp:75] Creating layer inception_4c/output_inception_4c/output_0_split
I0823 17:27:16.252383 29136 net.cpp:110] Creating Layer inception_4c/output_inception_4c/output_0_split
I0823 17:27:16.252390 29136 net.cpp:476] inception_4c/output_inception_4c/output_0_split <- inception_4c/output
I0823 17:27:16.252399 29136 net.cpp:432] inception_4c/output_inception_4c/output_0_split -> inception_4c/output_inception_4c/output_0_split_0
I0823 17:27:16.252409 29136 net.cpp:432] inception_4c/output_inception_4c/output_0_split -> inception_4c/output_inception_4c/output_0_split_1
I0823 17:27:16.252418 29136 net.cpp:432] inception_4c/output_inception_4c/output_0_split -> inception_4c/output_inception_4c/output_0_split_2
I0823 17:27:16.252429 29136 net.cpp:432] inception_4c/output_inception_4c/output_0_split -> inception_4c/output_inception_4c/output_0_split_3
I0823 17:27:16.252439 29136 net.cpp:155] Setting up inception_4c/output_inception_4c/output_0_split
I0823 17:27:16.252446 29136 net.cpp:163] Top shape: 32 512 14 14 (3211264)
I0823 17:27:16.252454 29136 net.cpp:163] Top shape: 32 512 14 14 (3211264)
I0823 17:27:16.252460 29136 net.cpp:163] Top shape: 32 512 14 14 (3211264)
I0823 17:27:16.252467 29136 net.cpp:163] Top shape: 32 512 14 14 (3211264)
I0823 17:27:16.252475 29136 layer_factory.hpp:75] Creating layer inception_4d/1x1
I0823 17:27:16.252485 29136 net.cpp:110] Creating Layer inception_4d/1x1
I0823 17:27:16.252491 29136 net.cpp:476] inception_4d/1x1 <- inception_4c/output_inception_4c/output_0_split_0
I0823 17:27:16.252501 29136 net.cpp:432] inception_4d/1x1 -> inception_4d/1x1
I0823 17:27:16.253104 29136 net.cpp:155] Setting up inception_4d/1x1
I0823 17:27:16.253118 29136 net.cpp:163] Top shape: 32 112 14 14 (702464)
I0823 17:27:16.253128 29136 layer_factory.hpp:75] Creating layer inception_4d/relu_1x1
I0823 17:27:16.253136 29136 net.cpp:110] Creating Layer inception_4d/relu_1x1
I0823 17:27:16.253144 29136 net.cpp:476] inception_4d/relu_1x1 <- inception_4d/1x1
I0823 17:27:16.253152 29136 net.cpp:419] inception_4d/relu_1x1 -> inception_4d/1x1 (in-place)
I0823 17:27:16.253298 29136 net.cpp:155] Setting up inception_4d/relu_1x1
I0823 17:27:16.253311 29136 net.cpp:163] Top shape: 32 112 14 14 (702464)
I0823 17:27:16.253319 29136 layer_factory.hpp:75] Creating layer inception_4d/3x3_reduce
I0823 17:27:16.253330 29136 net.cpp:110] Creating Layer inception_4d/3x3_reduce
I0823 17:27:16.253339 29136 net.cpp:476] inception_4d/3x3_reduce <- inception_4c/output_inception_4c/output_0_split_1
I0823 17:27:16.253347 29136 net.cpp:432] inception_4d/3x3_reduce -> inception_4d/3x3_reduce
I0823 17:27:16.254022 29136 net.cpp:155] Setting up inception_4d/3x3_reduce
I0823 17:27:16.254035 29136 net.cpp:163] Top shape: 32 144 14 14 (903168)
I0823 17:27:16.254045 29136 layer_factory.hpp:75] Creating layer inception_4d/relu_3x3_reduce
I0823 17:27:16.254055 29136 net.cpp:110] Creating Layer inception_4d/relu_3x3_reduce
I0823 17:27:16.254062 29136 net.cpp:476] inception_4d/relu_3x3_reduce <- inception_4d/3x3_reduce
I0823 17:27:16.254071 29136 net.cpp:419] inception_4d/relu_3x3_reduce -> inception_4d/3x3_reduce (in-place)
I0823 17:27:16.254128 29136 net.cpp:155] Setting up inception_4d/relu_3x3_reduce
I0823 17:27:16.254139 29136 net.cpp:163] Top shape: 32 144 14 14 (903168)
I0823 17:27:16.254147 29136 layer_factory.hpp:75] Creating layer inception_4d/3x3
I0823 17:27:16.254158 29136 net.cpp:110] Creating Layer inception_4d/3x3
I0823 17:27:16.254164 29136 net.cpp:476] inception_4d/3x3 <- inception_4d/3x3_reduce
I0823 17:27:16.254173 29136 net.cpp:432] inception_4d/3x3 -> inception_4d/3x3
I0823 17:27:16.256749 29136 net.cpp:155] Setting up inception_4d/3x3
I0823 17:27:16.256764 29136 net.cpp:163] Top shape: 32 288 14 14 (1806336)
I0823 17:27:16.256774 29136 layer_factory.hpp:75] Creating layer inception_4d/relu_3x3
I0823 17:27:16.256785 29136 net.cpp:110] Creating Layer inception_4d/relu_3x3
I0823 17:27:16.256793 29136 net.cpp:476] inception_4d/relu_3x3 <- inception_4d/3x3
I0823 17:27:16.256801 29136 net.cpp:419] inception_4d/relu_3x3 -> inception_4d/3x3 (in-place)
I0823 17:27:16.256858 29136 net.cpp:155] Setting up inception_4d/relu_3x3
I0823 17:27:16.256868 29136 net.cpp:163] Top shape: 32 288 14 14 (1806336)
I0823 17:27:16.256875 29136 layer_factory.hpp:75] Creating layer inception_4d/5x5_reduce
I0823 17:27:16.256886 29136 net.cpp:110] Creating Layer inception_4d/5x5_reduce
I0823 17:27:16.256893 29136 net.cpp:476] inception_4d/5x5_reduce <- inception_4c/output_inception_4c/output_0_split_2
I0823 17:27:16.256904 29136 net.cpp:432] inception_4d/5x5_reduce -> inception_4d/5x5_reduce
I0823 17:27:16.257289 29136 net.cpp:155] Setting up inception_4d/5x5_reduce
I0823 17:27:16.257302 29136 net.cpp:163] Top shape: 32 32 14 14 (200704)
I0823 17:27:16.257313 29136 layer_factory.hpp:75] Creating layer inception_4d/relu_5x5_reduce
I0823 17:27:16.257321 29136 net.cpp:110] Creating Layer inception_4d/relu_5x5_reduce
I0823 17:27:16.257328 29136 net.cpp:476] inception_4d/relu_5x5_reduce <- inception_4d/5x5_reduce
I0823 17:27:16.257339 29136 net.cpp:419] inception_4d/relu_5x5_reduce -> inception_4d/5x5_reduce (in-place)
I0823 17:27:16.257396 29136 net.cpp:155] Setting up inception_4d/relu_5x5_reduce
I0823 17:27:16.257406 29136 net.cpp:163] Top shape: 32 32 14 14 (200704)
I0823 17:27:16.257413 29136 layer_factory.hpp:75] Creating layer inception_4d/5x5
I0823 17:27:16.257422 29136 net.cpp:110] Creating Layer inception_4d/5x5
I0823 17:27:16.257429 29136 net.cpp:476] inception_4d/5x5 <- inception_4d/5x5_reduce
I0823 17:27:16.257441 29136 net.cpp:432] inception_4d/5x5 -> inception_4d/5x5
I0823 17:27:16.257997 29136 net.cpp:155] Setting up inception_4d/5x5
I0823 17:27:16.258020 29136 net.cpp:163] Top shape: 32 64 14 14 (401408)
I0823 17:27:16.258030 29136 layer_factory.hpp:75] Creating layer inception_4d/relu_5x5
I0823 17:27:16.258038 29136 net.cpp:110] Creating Layer inception_4d/relu_5x5
I0823 17:27:16.258046 29136 net.cpp:476] inception_4d/relu_5x5 <- inception_4d/5x5
I0823 17:27:16.258054 29136 net.cpp:419] inception_4d/relu_5x5 -> inception_4d/5x5 (in-place)
I0823 17:27:16.258201 29136 net.cpp:155] Setting up inception_4d/relu_5x5
I0823 17:27:16.258214 29136 net.cpp:163] Top shape: 32 64 14 14 (401408)
I0823 17:27:16.258221 29136 layer_factory.hpp:75] Creating layer inception_4d/pool
I0823 17:27:16.258229 29136 layer_factory.cpp:60] CUDNN does not support padding or multiple tops. Using Caffe's own pooling layer.
I0823 17:27:16.258236 29136 net.cpp:110] Creating Layer inception_4d/pool
I0823 17:27:16.258244 29136 net.cpp:476] inception_4d/pool <- inception_4c/output_inception_4c/output_0_split_3
I0823 17:27:16.258255 29136 net.cpp:432] inception_4d/pool -> inception_4d/pool
I0823 17:27:16.258265 29136 net.cpp:155] Setting up inception_4d/pool
I0823 17:27:16.258273 29136 net.cpp:163] Top shape: 32 512 14 14 (3211264)
I0823 17:27:16.258280 29136 layer_factory.hpp:75] Creating layer inception_4d/pool_proj
I0823 17:27:16.258291 29136 net.cpp:110] Creating Layer inception_4d/pool_proj
I0823 17:27:16.258298 29136 net.cpp:476] inception_4d/pool_proj <- inception_4d/pool
I0823 17:27:16.258307 29136 net.cpp:432] inception_4d/pool_proj -> inception_4d/pool_proj
I0823 17:27:16.258821 29136 net.cpp:155] Setting up inception_4d/pool_proj
I0823 17:27:16.258833 29136 net.cpp:163] Top shape: 32 64 14 14 (401408)
I0823 17:27:16.258843 29136 layer_factory.hpp:75] Creating layer inception_4d/relu_pool_proj
I0823 17:27:16.258853 29136 net.cpp:110] Creating Layer inception_4d/relu_pool_proj
I0823 17:27:16.258862 29136 net.cpp:476] inception_4d/relu_pool_proj <- inception_4d/pool_proj
I0823 17:27:16.258869 29136 net.cpp:419] inception_4d/relu_pool_proj -> inception_4d/pool_proj (in-place)
I0823 17:27:16.258927 29136 net.cpp:155] Setting up inception_4d/relu_pool_proj
I0823 17:27:16.258941 29136 net.cpp:163] Top shape: 32 64 14 14 (401408)
I0823 17:27:16.258949 29136 layer_factory.hpp:75] Creating layer inception_4d/output
I0823 17:27:16.258957 29136 net.cpp:110] Creating Layer inception_4d/output
I0823 17:27:16.258965 29136 net.cpp:476] inception_4d/output <- inception_4d/1x1
I0823 17:27:16.258971 29136 net.cpp:476] inception_4d/output <- inception_4d/3x3
I0823 17:27:16.258980 29136 net.cpp:476] inception_4d/output <- inception_4d/5x5
I0823 17:27:16.258987 29136 net.cpp:476] inception_4d/output <- inception_4d/pool_proj
I0823 17:27:16.258997 29136 net.cpp:432] inception_4d/output -> inception_4d/output
I0823 17:27:16.259008 29136 net.cpp:155] Setting up inception_4d/output
I0823 17:27:16.259017 29136 net.cpp:163] Top shape: 32 528 14 14 (3311616)
I0823 17:27:16.259024 29136 layer_factory.hpp:75] Creating layer inception_4d/output_inception_4d/output_0_split
I0823 17:27:16.259032 29136 net.cpp:110] Creating Layer inception_4d/output_inception_4d/output_0_split
I0823 17:27:16.259039 29136 net.cpp:476] inception_4d/output_inception_4d/output_0_split <- inception_4d/output
I0823 17:27:16.259048 29136 net.cpp:432] inception_4d/output_inception_4d/output_0_split -> inception_4d/output_inception_4d/output_0_split_0
I0823 17:27:16.259058 29136 net.cpp:432] inception_4d/output_inception_4d/output_0_split -> inception_4d/output_inception_4d/output_0_split_1
I0823 17:27:16.259068 29136 net.cpp:432] inception_4d/output_inception_4d/output_0_split -> inception_4d/output_inception_4d/output_0_split_2
I0823 17:27:16.259080 29136 net.cpp:432] inception_4d/output_inception_4d/output_0_split -> inception_4d/output_inception_4d/output_0_split_3
I0823 17:27:16.259091 29136 net.cpp:432] inception_4d/output_inception_4d/output_0_split -> inception_4d/output_inception_4d/output_0_split_4
I0823 17:27:16.259102 29136 net.cpp:155] Setting up inception_4d/output_inception_4d/output_0_split
I0823 17:27:16.259124 29136 net.cpp:163] Top shape: 32 528 14 14 (3311616)
I0823 17:27:16.259140 29136 net.cpp:163] Top shape: 32 528 14 14 (3311616)
I0823 17:27:16.259147 29136 net.cpp:163] Top shape: 32 528 14 14 (3311616)
I0823 17:27:16.259155 29136 net.cpp:163] Top shape: 32 528 14 14 (3311616)
I0823 17:27:16.259162 29136 net.cpp:163] Top shape: 32 528 14 14 (3311616)
I0823 17:27:16.259177 29136 layer_factory.hpp:75] Creating layer loss2/ave_pool
I0823 17:27:16.259188 29136 net.cpp:110] Creating Layer loss2/ave_pool
I0823 17:27:16.259196 29136 net.cpp:476] loss2/ave_pool <- inception_4d/output_inception_4d/output_0_split_0
I0823 17:27:16.259204 29136 net.cpp:432] loss2/ave_pool -> loss2/ave_pool
I0823 17:27:16.259263 29136 net.cpp:155] Setting up loss2/ave_pool
I0823 17:27:16.259274 29136 net.cpp:163] Top shape: 32 528 4 4 (270336)
I0823 17:27:16.259280 29136 layer_factory.hpp:75] Creating layer loss2/conv
I0823 17:27:16.259292 29136 net.cpp:110] Creating Layer loss2/conv
I0823 17:27:16.259299 29136 net.cpp:476] loss2/conv <- loss2/ave_pool
I0823 17:27:16.259309 29136 net.cpp:432] loss2/conv -> loss2/conv
I0823 17:27:16.260413 29136 net.cpp:155] Setting up loss2/conv
I0823 17:27:16.260431 29136 net.cpp:163] Top shape: 32 128 4 4 (65536)
I0823 17:27:16.260442 29136 layer_factory.hpp:75] Creating layer loss2/relu_conv
I0823 17:27:16.260454 29136 net.cpp:110] Creating Layer loss2/relu_conv
I0823 17:27:16.260462 29136 net.cpp:476] loss2/relu_conv <- loss2/conv
I0823 17:27:16.260473 29136 net.cpp:419] loss2/relu_conv -> loss2/conv (in-place)
I0823 17:27:16.260532 29136 net.cpp:155] Setting up loss2/relu_conv
I0823 17:27:16.260547 29136 net.cpp:163] Top shape: 32 128 4 4 (65536)
I0823 17:27:16.260555 29136 layer_factory.hpp:75] Creating layer loss2/fc
I0823 17:27:16.260566 29136 net.cpp:110] Creating Layer loss2/fc
I0823 17:27:16.260574 29136 net.cpp:476] loss2/fc <- loss2/conv
I0823 17:27:16.260583 29136 net.cpp:432] loss2/fc -> loss2/fc
I0823 17:27:16.345527 29136 net.cpp:155] Setting up loss2/fc
I0823 17:27:16.345569 29136 net.cpp:163] Top shape: 32 1024 (32768)
I0823 17:27:16.345585 29136 layer_factory.hpp:75] Creating layer loss2/relu_fc
I0823 17:27:16.345598 29136 net.cpp:110] Creating Layer loss2/relu_fc
I0823 17:27:16.345608 29136 net.cpp:476] loss2/relu_fc <- loss2/fc
I0823 17:27:16.345619 29136 net.cpp:419] loss2/relu_fc -> loss2/fc (in-place)
I0823 17:27:16.345870 29136 net.cpp:155] Setting up loss2/relu_fc
I0823 17:27:16.345885 29136 net.cpp:163] Top shape: 32 1024 (32768)
I0823 17:27:16.345899 29136 layer_factory.hpp:75] Creating layer loss2/drop_fc
I0823 17:27:16.345911 29136 net.cpp:110] Creating Layer loss2/drop_fc
I0823 17:27:16.345918 29136 net.cpp:476] loss2/drop_fc <- loss2/fc
I0823 17:27:16.345928 29136 net.cpp:419] loss2/drop_fc -> loss2/fc (in-place)
I0823 17:27:16.345940 29136 net.cpp:155] Setting up loss2/drop_fc
I0823 17:27:16.345949 29136 net.cpp:163] Top shape: 32 1024 (32768)
I0823 17:27:16.345957 29136 layer_factory.hpp:75] Creating layer loss2/classifier
I0823 17:27:16.345968 29136 net.cpp:110] Creating Layer loss2/classifier
I0823 17:27:16.345974 29136 net.cpp:476] loss2/classifier <- loss2/fc
I0823 17:27:16.345984 29136 net.cpp:432] loss2/classifier -> loss2/classifier
I0823 17:27:16.352092 29136 net.cpp:155] Setting up loss2/classifier
I0823 17:27:16.352108 29136 net.cpp:163] Top shape: 32 1000 (32000)
I0823 17:27:16.352119 29136 layer_factory.hpp:75] Creating layer loss2/loss
I0823 17:27:16.352133 29136 net.cpp:110] Creating Layer loss2/loss
I0823 17:27:16.352140 29136 net.cpp:476] loss2/loss <- loss2/classifier
I0823 17:27:16.352149 29136 net.cpp:476] loss2/loss <- label_data_1_split_1
I0823 17:27:16.352159 29136 net.cpp:432] loss2/loss -> loss2/loss1
I0823 17:27:16.352171 29136 layer_factory.hpp:75] Creating layer loss2/loss
I0823 17:27:16.352617 29136 net.cpp:155] Setting up loss2/loss
I0823 17:27:16.352632 29136 net.cpp:163] Top shape: (1)
I0823 17:27:16.352646 29136 net.cpp:168]     with loss weight 0.3
I0823 17:27:16.352671 29136 layer_factory.hpp:75] Creating layer inception_4e/1x1
I0823 17:27:16.352725 29136 net.cpp:110] Creating Layer inception_4e/1x1
I0823 17:27:16.352733 29136 net.cpp:476] inception_4e/1x1 <- inception_4d/output_inception_4d/output_0_split_1
I0823 17:27:16.352744 29136 net.cpp:432] inception_4e/1x1 -> inception_4e/1x1
I0823 17:27:16.353946 29136 net.cpp:155] Setting up inception_4e/1x1
I0823 17:27:16.353965 29136 net.cpp:163] Top shape: 32 256 14 14 (1605632)
I0823 17:27:16.353983 29136 layer_factory.hpp:75] Creating layer inception_4e/relu_1x1
I0823 17:27:16.353994 29136 net.cpp:110] Creating Layer inception_4e/relu_1x1
I0823 17:27:16.354001 29136 net.cpp:476] inception_4e/relu_1x1 <- inception_4e/1x1
I0823 17:27:16.354013 29136 net.cpp:419] inception_4e/relu_1x1 -> inception_4e/1x1 (in-place)
I0823 17:27:16.354076 29136 net.cpp:155] Setting up inception_4e/relu_1x1
I0823 17:27:16.354087 29136 net.cpp:163] Top shape: 32 256 14 14 (1605632)
I0823 17:27:16.354094 29136 layer_factory.hpp:75] Creating layer inception_4e/3x3_reduce
I0823 17:27:16.354104 29136 net.cpp:110] Creating Layer inception_4e/3x3_reduce
I0823 17:27:16.354112 29136 net.cpp:476] inception_4e/3x3_reduce <- inception_4d/output_inception_4d/output_0_split_2
I0823 17:27:16.354125 29136 net.cpp:432] inception_4e/3x3_reduce -> inception_4e/3x3_reduce
I0823 17:27:16.355228 29136 net.cpp:155] Setting up inception_4e/3x3_reduce
I0823 17:27:16.355243 29136 net.cpp:163] Top shape: 32 160 14 14 (1003520)
I0823 17:27:16.355254 29136 layer_factory.hpp:75] Creating layer inception_4e/relu_3x3_reduce
I0823 17:27:16.355264 29136 net.cpp:110] Creating Layer inception_4e/relu_3x3_reduce
I0823 17:27:16.355273 29136 net.cpp:476] inception_4e/relu_3x3_reduce <- inception_4e/3x3_reduce
I0823 17:27:16.355283 29136 net.cpp:419] inception_4e/relu_3x3_reduce -> inception_4e/3x3_reduce (in-place)
I0823 17:27:16.355345 29136 net.cpp:155] Setting up inception_4e/relu_3x3_reduce
I0823 17:27:16.355355 29136 net.cpp:163] Top shape: 32 160 14 14 (1003520)
I0823 17:27:16.355363 29136 layer_factory.hpp:75] Creating layer inception_4e/3x3
I0823 17:27:16.355375 29136 net.cpp:110] Creating Layer inception_4e/3x3
I0823 17:27:16.355382 29136 net.cpp:476] inception_4e/3x3 <- inception_4e/3x3_reduce
I0823 17:27:16.355393 29136 net.cpp:432] inception_4e/3x3 -> inception_4e/3x3
I0823 17:27:16.358589 29136 net.cpp:155] Setting up inception_4e/3x3
I0823 17:27:16.358605 29136 net.cpp:163] Top shape: 32 320 14 14 (2007040)
I0823 17:27:16.358615 29136 layer_factory.hpp:75] Creating layer inception_4e/relu_3x3
I0823 17:27:16.358625 29136 net.cpp:110] Creating Layer inception_4e/relu_3x3
I0823 17:27:16.358633 29136 net.cpp:476] inception_4e/relu_3x3 <- inception_4e/3x3
I0823 17:27:16.358644 29136 net.cpp:419] inception_4e/relu_3x3 -> inception_4e/3x3 (in-place)
I0823 17:27:16.358793 29136 net.cpp:155] Setting up inception_4e/relu_3x3
I0823 17:27:16.358806 29136 net.cpp:163] Top shape: 32 320 14 14 (2007040)
I0823 17:27:16.358814 29136 layer_factory.hpp:75] Creating layer inception_4e/5x5_reduce
I0823 17:27:16.358824 29136 net.cpp:110] Creating Layer inception_4e/5x5_reduce
I0823 17:27:16.358832 29136 net.cpp:476] inception_4e/5x5_reduce <- inception_4d/output_inception_4d/output_0_split_3
I0823 17:27:16.358844 29136 net.cpp:432] inception_4e/5x5_reduce -> inception_4e/5x5_reduce
I0823 17:27:16.359246 29136 net.cpp:155] Setting up inception_4e/5x5_reduce
I0823 17:27:16.359259 29136 net.cpp:163] Top shape: 32 32 14 14 (200704)
I0823 17:27:16.359269 29136 layer_factory.hpp:75] Creating layer inception_4e/relu_5x5_reduce
I0823 17:27:16.359280 29136 net.cpp:110] Creating Layer inception_4e/relu_5x5_reduce
I0823 17:27:16.359288 29136 net.cpp:476] inception_4e/relu_5x5_reduce <- inception_4e/5x5_reduce
I0823 17:27:16.359297 29136 net.cpp:419] inception_4e/relu_5x5_reduce -> inception_4e/5x5_reduce (in-place)
I0823 17:27:16.359356 29136 net.cpp:155] Setting up inception_4e/relu_5x5_reduce
I0823 17:27:16.359366 29136 net.cpp:163] Top shape: 32 32 14 14 (200704)
I0823 17:27:16.359374 29136 layer_factory.hpp:75] Creating layer inception_4e/5x5
I0823 17:27:16.359402 29136 net.cpp:110] Creating Layer inception_4e/5x5
I0823 17:27:16.359426 29136 net.cpp:476] inception_4e/5x5 <- inception_4e/5x5_reduce
I0823 17:27:16.359436 29136 net.cpp:432] inception_4e/5x5 -> inception_4e/5x5
I0823 17:27:16.360257 29136 net.cpp:155] Setting up inception_4e/5x5
I0823 17:27:16.360271 29136 net.cpp:163] Top shape: 32 128 14 14 (802816)
I0823 17:27:16.360282 29136 layer_factory.hpp:75] Creating layer inception_4e/relu_5x5
I0823 17:27:16.360291 29136 net.cpp:110] Creating Layer inception_4e/relu_5x5
I0823 17:27:16.360298 29136 net.cpp:476] inception_4e/relu_5x5 <- inception_4e/5x5
I0823 17:27:16.360306 29136 net.cpp:419] inception_4e/relu_5x5 -> inception_4e/5x5 (in-place)
I0823 17:27:16.360364 29136 net.cpp:155] Setting up inception_4e/relu_5x5
I0823 17:27:16.360375 29136 net.cpp:163] Top shape: 32 128 14 14 (802816)
I0823 17:27:16.360383 29136 layer_factory.hpp:75] Creating layer inception_4e/pool
I0823 17:27:16.360390 29136 layer_factory.cpp:60] CUDNN does not support padding or multiple tops. Using Caffe's own pooling layer.
I0823 17:27:16.360399 29136 net.cpp:110] Creating Layer inception_4e/pool
I0823 17:27:16.360406 29136 net.cpp:476] inception_4e/pool <- inception_4d/output_inception_4d/output_0_split_4
I0823 17:27:16.360416 29136 net.cpp:432] inception_4e/pool -> inception_4e/pool
I0823 17:27:16.360430 29136 net.cpp:155] Setting up inception_4e/pool
I0823 17:27:16.360438 29136 net.cpp:163] Top shape: 32 528 14 14 (3311616)
I0823 17:27:16.360445 29136 layer_factory.hpp:75] Creating layer inception_4e/pool_proj
I0823 17:27:16.360456 29136 net.cpp:110] Creating Layer inception_4e/pool_proj
I0823 17:27:16.360465 29136 net.cpp:476] inception_4e/pool_proj <- inception_4e/pool
I0823 17:27:16.360473 29136 net.cpp:432] inception_4e/pool_proj -> inception_4e/pool_proj
I0823 17:27:16.361119 29136 net.cpp:155] Setting up inception_4e/pool_proj
I0823 17:27:16.361132 29136 net.cpp:163] Top shape: 32 128 14 14 (802816)
I0823 17:27:16.361142 29136 layer_factory.hpp:75] Creating layer inception_4e/relu_pool_proj
I0823 17:27:16.361151 29136 net.cpp:110] Creating Layer inception_4e/relu_pool_proj
I0823 17:27:16.361160 29136 net.cpp:476] inception_4e/relu_pool_proj <- inception_4e/pool_proj
I0823 17:27:16.361170 29136 net.cpp:419] inception_4e/relu_pool_proj -> inception_4e/pool_proj (in-place)
I0823 17:27:16.361320 29136 net.cpp:155] Setting up inception_4e/relu_pool_proj
I0823 17:27:16.361332 29136 net.cpp:163] Top shape: 32 128 14 14 (802816)
I0823 17:27:16.361340 29136 layer_factory.hpp:75] Creating layer inception_4e/output
I0823 17:27:16.361351 29136 net.cpp:110] Creating Layer inception_4e/output
I0823 17:27:16.361357 29136 net.cpp:476] inception_4e/output <- inception_4e/1x1
I0823 17:27:16.361366 29136 net.cpp:476] inception_4e/output <- inception_4e/3x3
I0823 17:27:16.361372 29136 net.cpp:476] inception_4e/output <- inception_4e/5x5
I0823 17:27:16.361381 29136 net.cpp:476] inception_4e/output <- inception_4e/pool_proj
I0823 17:27:16.361390 29136 net.cpp:432] inception_4e/output -> inception_4e/output
I0823 17:27:16.361402 29136 net.cpp:155] Setting up inception_4e/output
I0823 17:27:16.361412 29136 net.cpp:163] Top shape: 32 832 14 14 (5218304)
I0823 17:27:16.361418 29136 layer_factory.hpp:75] Creating layer pool4/3x3_s2
I0823 17:27:16.361426 29136 net.cpp:110] Creating Layer pool4/3x3_s2
I0823 17:27:16.361433 29136 net.cpp:476] pool4/3x3_s2 <- inception_4e/output
I0823 17:27:16.361443 29136 net.cpp:432] pool4/3x3_s2 -> pool4/3x3_s2
I0823 17:27:16.361505 29136 net.cpp:155] Setting up pool4/3x3_s2
I0823 17:27:16.361516 29136 net.cpp:163] Top shape: 32 832 7 7 (1304576)
I0823 17:27:16.361523 29136 layer_factory.hpp:75] Creating layer pool4/3x3_s2_pool4/3x3_s2_0_split
I0823 17:27:16.361532 29136 net.cpp:110] Creating Layer pool4/3x3_s2_pool4/3x3_s2_0_split
I0823 17:27:16.361539 29136 net.cpp:476] pool4/3x3_s2_pool4/3x3_s2_0_split <- pool4/3x3_s2
I0823 17:27:16.361547 29136 net.cpp:432] pool4/3x3_s2_pool4/3x3_s2_0_split -> pool4/3x3_s2_pool4/3x3_s2_0_split_0
I0823 17:27:16.361559 29136 net.cpp:432] pool4/3x3_s2_pool4/3x3_s2_0_split -> pool4/3x3_s2_pool4/3x3_s2_0_split_1
I0823 17:27:16.361579 29136 net.cpp:432] pool4/3x3_s2_pool4/3x3_s2_0_split -> pool4/3x3_s2_pool4/3x3_s2_0_split_2
I0823 17:27:16.361589 29136 net.cpp:432] pool4/3x3_s2_pool4/3x3_s2_0_split -> pool4/3x3_s2_pool4/3x3_s2_0_split_3
I0823 17:27:16.361599 29136 net.cpp:155] Setting up pool4/3x3_s2_pool4/3x3_s2_0_split
I0823 17:27:16.361608 29136 net.cpp:163] Top shape: 32 832 7 7 (1304576)
I0823 17:27:16.361615 29136 net.cpp:163] Top shape: 32 832 7 7 (1304576)
I0823 17:27:16.361623 29136 net.cpp:163] Top shape: 32 832 7 7 (1304576)
I0823 17:27:16.361629 29136 net.cpp:163] Top shape: 32 832 7 7 (1304576)
I0823 17:27:16.361636 29136 layer_factory.hpp:75] Creating layer inception_5a/1x1
I0823 17:27:16.361647 29136 net.cpp:110] Creating Layer inception_5a/1x1
I0823 17:27:16.361654 29136 net.cpp:476] inception_5a/1x1 <- pool4/3x3_s2_pool4/3x3_s2_0_split_0
I0823 17:27:16.361663 29136 net.cpp:432] inception_5a/1x1 -> inception_5a/1x1
I0823 17:27:16.363422 29136 net.cpp:155] Setting up inception_5a/1x1
I0823 17:27:16.363438 29136 net.cpp:163] Top shape: 32 256 7 7 (401408)
I0823 17:27:16.363450 29136 layer_factory.hpp:75] Creating layer inception_5a/relu_1x1
I0823 17:27:16.363458 29136 net.cpp:110] Creating Layer inception_5a/relu_1x1
I0823 17:27:16.363466 29136 net.cpp:476] inception_5a/relu_1x1 <- inception_5a/1x1
I0823 17:27:16.363476 29136 net.cpp:419] inception_5a/relu_1x1 -> inception_5a/1x1 (in-place)
I0823 17:27:16.363533 29136 net.cpp:155] Setting up inception_5a/relu_1x1
I0823 17:27:16.363545 29136 net.cpp:163] Top shape: 32 256 7 7 (401408)
I0823 17:27:16.363553 29136 layer_factory.hpp:75] Creating layer inception_5a/3x3_reduce
I0823 17:27:16.363562 29136 net.cpp:110] Creating Layer inception_5a/3x3_reduce
I0823 17:27:16.363570 29136 net.cpp:476] inception_5a/3x3_reduce <- pool4/3x3_s2_pool4/3x3_s2_0_split_1
I0823 17:27:16.363581 29136 net.cpp:432] inception_5a/3x3_reduce -> inception_5a/3x3_reduce
I0823 17:27:16.364923 29136 net.cpp:155] Setting up inception_5a/3x3_reduce
I0823 17:27:16.364938 29136 net.cpp:163] Top shape: 32 160 7 7 (250880)
I0823 17:27:16.364948 29136 layer_factory.hpp:75] Creating layer inception_5a/relu_3x3_reduce
I0823 17:27:16.364958 29136 net.cpp:110] Creating Layer inception_5a/relu_3x3_reduce
I0823 17:27:16.364964 29136 net.cpp:476] inception_5a/relu_3x3_reduce <- inception_5a/3x3_reduce
I0823 17:27:16.364975 29136 net.cpp:419] inception_5a/relu_3x3_reduce -> inception_5a/3x3_reduce (in-place)
I0823 17:27:16.365039 29136 net.cpp:155] Setting up inception_5a/relu_3x3_reduce
I0823 17:27:16.365049 29136 net.cpp:163] Top shape: 32 160 7 7 (250880)
I0823 17:27:16.365057 29136 layer_factory.hpp:75] Creating layer inception_5a/3x3
I0823 17:27:16.365067 29136 net.cpp:110] Creating Layer inception_5a/3x3
I0823 17:27:16.365074 29136 net.cpp:476] inception_5a/3x3 <- inception_5a/3x3_reduce
I0823 17:27:16.365085 29136 net.cpp:432] inception_5a/3x3 -> inception_5a/3x3
I0823 17:27:16.368515 29136 net.cpp:155] Setting up inception_5a/3x3
I0823 17:27:16.368535 29136 net.cpp:163] Top shape: 32 320 7 7 (501760)
I0823 17:27:16.368547 29136 layer_factory.hpp:75] Creating layer inception_5a/relu_3x3
I0823 17:27:16.368557 29136 net.cpp:110] Creating Layer inception_5a/relu_3x3
I0823 17:27:16.368566 29136 net.cpp:476] inception_5a/relu_3x3 <- inception_5a/3x3
I0823 17:27:16.368580 29136 net.cpp:419] inception_5a/relu_3x3 -> inception_5a/3x3 (in-place)
I0823 17:27:16.368753 29136 net.cpp:155] Setting up inception_5a/relu_3x3
I0823 17:27:16.368767 29136 net.cpp:163] Top shape: 32 320 7 7 (501760)
I0823 17:27:16.368775 29136 layer_factory.hpp:75] Creating layer inception_5a/5x5_reduce
I0823 17:27:16.368788 29136 net.cpp:110] Creating Layer inception_5a/5x5_reduce
I0823 17:27:16.368796 29136 net.cpp:476] inception_5a/5x5_reduce <- pool4/3x3_s2_pool4/3x3_s2_0_split_2
I0823 17:27:16.368806 29136 net.cpp:432] inception_5a/5x5_reduce -> inception_5a/5x5_reduce
I0823 17:27:16.369293 29136 net.cpp:155] Setting up inception_5a/5x5_reduce
I0823 17:27:16.369307 29136 net.cpp:163] Top shape: 32 32 7 7 (50176)
I0823 17:27:16.369333 29136 layer_factory.hpp:75] Creating layer inception_5a/relu_5x5_reduce
I0823 17:27:16.369343 29136 net.cpp:110] Creating Layer inception_5a/relu_5x5_reduce
I0823 17:27:16.369351 29136 net.cpp:476] inception_5a/relu_5x5_reduce <- inception_5a/5x5_reduce
I0823 17:27:16.369360 29136 net.cpp:419] inception_5a/relu_5x5_reduce -> inception_5a/5x5_reduce (in-place)
I0823 17:27:16.369421 29136 net.cpp:155] Setting up inception_5a/relu_5x5_reduce
I0823 17:27:16.369432 29136 net.cpp:163] Top shape: 32 32 7 7 (50176)
I0823 17:27:16.369439 29136 layer_factory.hpp:75] Creating layer inception_5a/5x5
I0823 17:27:16.369451 29136 net.cpp:110] Creating Layer inception_5a/5x5
I0823 17:27:16.369460 29136 net.cpp:476] inception_5a/5x5 <- inception_5a/5x5_reduce
I0823 17:27:16.369470 29136 net.cpp:432] inception_5a/5x5 -> inception_5a/5x5
I0823 17:27:16.370362 29136 net.cpp:155] Setting up inception_5a/5x5
I0823 17:27:16.370376 29136 net.cpp:163] Top shape: 32 128 7 7 (200704)
I0823 17:27:16.370388 29136 layer_factory.hpp:75] Creating layer inception_5a/relu_5x5
I0823 17:27:16.370396 29136 net.cpp:110] Creating Layer inception_5a/relu_5x5
I0823 17:27:16.370404 29136 net.cpp:476] inception_5a/relu_5x5 <- inception_5a/5x5
I0823 17:27:16.370414 29136 net.cpp:419] inception_5a/relu_5x5 -> inception_5a/5x5 (in-place)
I0823 17:27:16.370471 29136 net.cpp:155] Setting up inception_5a/relu_5x5
I0823 17:27:16.370482 29136 net.cpp:163] Top shape: 32 128 7 7 (200704)
I0823 17:27:16.370491 29136 layer_factory.hpp:75] Creating layer inception_5a/pool
I0823 17:27:16.370498 29136 layer_factory.cpp:60] CUDNN does not support padding or multiple tops. Using Caffe's own pooling layer.
I0823 17:27:16.370507 29136 net.cpp:110] Creating Layer inception_5a/pool
I0823 17:27:16.370514 29136 net.cpp:476] inception_5a/pool <- pool4/3x3_s2_pool4/3x3_s2_0_split_3
I0823 17:27:16.370523 29136 net.cpp:432] inception_5a/pool -> inception_5a/pool
I0823 17:27:16.370537 29136 net.cpp:155] Setting up inception_5a/pool
I0823 17:27:16.370545 29136 net.cpp:163] Top shape: 32 832 7 7 (1304576)
I0823 17:27:16.370553 29136 layer_factory.hpp:75] Creating layer inception_5a/pool_proj
I0823 17:27:16.370564 29136 net.cpp:110] Creating Layer inception_5a/pool_proj
I0823 17:27:16.370573 29136 net.cpp:476] inception_5a/pool_proj <- inception_5a/pool
I0823 17:27:16.370584 29136 net.cpp:432] inception_5a/pool_proj -> inception_5a/pool_proj
I0823 17:27:16.371868 29136 net.cpp:155] Setting up inception_5a/pool_proj
I0823 17:27:16.371886 29136 net.cpp:163] Top shape: 32 128 7 7 (200704)
I0823 17:27:16.371897 29136 layer_factory.hpp:75] Creating layer inception_5a/relu_pool_proj
I0823 17:27:16.371907 29136 net.cpp:110] Creating Layer inception_5a/relu_pool_proj
I0823 17:27:16.371915 29136 net.cpp:476] inception_5a/relu_pool_proj <- inception_5a/pool_proj
I0823 17:27:16.371925 29136 net.cpp:419] inception_5a/relu_pool_proj -> inception_5a/pool_proj (in-place)
I0823 17:27:16.371989 29136 net.cpp:155] Setting up inception_5a/relu_pool_proj
I0823 17:27:16.371999 29136 net.cpp:163] Top shape: 32 128 7 7 (200704)
I0823 17:27:16.372007 29136 layer_factory.hpp:75] Creating layer inception_5a/output
I0823 17:27:16.372016 29136 net.cpp:110] Creating Layer inception_5a/output
I0823 17:27:16.372025 29136 net.cpp:476] inception_5a/output <- inception_5a/1x1
I0823 17:27:16.372032 29136 net.cpp:476] inception_5a/output <- inception_5a/3x3
I0823 17:27:16.372040 29136 net.cpp:476] inception_5a/output <- inception_5a/5x5
I0823 17:27:16.372048 29136 net.cpp:476] inception_5a/output <- inception_5a/pool_proj
I0823 17:27:16.372058 29136 net.cpp:432] inception_5a/output -> inception_5a/output
I0823 17:27:16.372071 29136 net.cpp:155] Setting up inception_5a/output
I0823 17:27:16.372079 29136 net.cpp:163] Top shape: 32 832 7 7 (1304576)
I0823 17:27:16.372087 29136 layer_factory.hpp:75] Creating layer inception_5a/output_inception_5a/output_0_split
I0823 17:27:16.372095 29136 net.cpp:110] Creating Layer inception_5a/output_inception_5a/output_0_split
I0823 17:27:16.372117 29136 net.cpp:476] inception_5a/output_inception_5a/output_0_split <- inception_5a/output
I0823 17:27:16.372126 29136 net.cpp:432] inception_5a/output_inception_5a/output_0_split -> inception_5a/output_inception_5a/output_0_split_0
I0823 17:27:16.372138 29136 net.cpp:432] inception_5a/output_inception_5a/output_0_split -> inception_5a/output_inception_5a/output_0_split_1
I0823 17:27:16.372149 29136 net.cpp:432] inception_5a/output_inception_5a/output_0_split -> inception_5a/output_inception_5a/output_0_split_2
I0823 17:27:16.372159 29136 net.cpp:432] inception_5a/output_inception_5a/output_0_split -> inception_5a/output_inception_5a/output_0_split_3
I0823 17:27:16.372170 29136 net.cpp:155] Setting up inception_5a/output_inception_5a/output_0_split
I0823 17:27:16.372179 29136 net.cpp:163] Top shape: 32 832 7 7 (1304576)
I0823 17:27:16.372186 29136 net.cpp:163] Top shape: 32 832 7 7 (1304576)
I0823 17:27:16.372195 29136 net.cpp:163] Top shape: 32 832 7 7 (1304576)
I0823 17:27:16.372201 29136 net.cpp:163] Top shape: 32 832 7 7 (1304576)
I0823 17:27:16.372207 29136 layer_factory.hpp:75] Creating layer inception_5b/1x1
I0823 17:27:16.372220 29136 net.cpp:110] Creating Layer inception_5b/1x1
I0823 17:27:16.372226 29136 net.cpp:476] inception_5b/1x1 <- inception_5a/output_inception_5a/output_0_split_0
I0823 17:27:16.372236 29136 net.cpp:432] inception_5b/1x1 -> inception_5b/1x1
I0823 17:27:16.374636 29136 net.cpp:155] Setting up inception_5b/1x1
I0823 17:27:16.374653 29136 net.cpp:163] Top shape: 32 384 7 7 (602112)
I0823 17:27:16.374665 29136 layer_factory.hpp:75] Creating layer inception_5b/relu_1x1
I0823 17:27:16.374675 29136 net.cpp:110] Creating Layer inception_5b/relu_1x1
I0823 17:27:16.374682 29136 net.cpp:476] inception_5b/relu_1x1 <- inception_5b/1x1
I0823 17:27:16.374691 29136 net.cpp:419] inception_5b/relu_1x1 -> inception_5b/1x1 (in-place)
I0823 17:27:16.374848 29136 net.cpp:155] Setting up inception_5b/relu_1x1
I0823 17:27:16.374861 29136 net.cpp:163] Top shape: 32 384 7 7 (602112)
I0823 17:27:16.374869 29136 layer_factory.hpp:75] Creating layer inception_5b/3x3_reduce
I0823 17:27:16.374879 29136 net.cpp:110] Creating Layer inception_5b/3x3_reduce
I0823 17:27:16.374887 29136 net.cpp:476] inception_5b/3x3_reduce <- inception_5a/output_inception_5a/output_0_split_1
I0823 17:27:16.374899 29136 net.cpp:432] inception_5b/3x3_reduce -> inception_5b/3x3_reduce
I0823 17:27:16.376384 29136 net.cpp:155] Setting up inception_5b/3x3_reduce
I0823 17:27:16.376399 29136 net.cpp:163] Top shape: 32 192 7 7 (301056)
I0823 17:27:16.376409 29136 layer_factory.hpp:75] Creating layer inception_5b/relu_3x3_reduce
I0823 17:27:16.376417 29136 net.cpp:110] Creating Layer inception_5b/relu_3x3_reduce
I0823 17:27:16.376425 29136 net.cpp:476] inception_5b/relu_3x3_reduce <- inception_5b/3x3_reduce
I0823 17:27:16.376435 29136 net.cpp:419] inception_5b/relu_3x3_reduce -> inception_5b/3x3_reduce (in-place)
I0823 17:27:16.376494 29136 net.cpp:155] Setting up inception_5b/relu_3x3_reduce
I0823 17:27:16.376504 29136 net.cpp:163] Top shape: 32 192 7 7 (301056)
I0823 17:27:16.376512 29136 layer_factory.hpp:75] Creating layer inception_5b/3x3
I0823 17:27:16.376523 29136 net.cpp:110] Creating Layer inception_5b/3x3
I0823 17:27:16.376530 29136 net.cpp:476] inception_5b/3x3 <- inception_5b/3x3_reduce
I0823 17:27:16.376540 29136 net.cpp:432] inception_5b/3x3 -> inception_5b/3x3
I0823 17:27:16.380938 29136 net.cpp:155] Setting up inception_5b/3x3
I0823 17:27:16.380957 29136 net.cpp:163] Top shape: 32 384 7 7 (602112)
I0823 17:27:16.380967 29136 layer_factory.hpp:75] Creating layer inception_5b/relu_3x3
I0823 17:27:16.380982 29136 net.cpp:110] Creating Layer inception_5b/relu_3x3
I0823 17:27:16.380991 29136 net.cpp:476] inception_5b/relu_3x3 <- inception_5b/3x3
I0823 17:27:16.381000 29136 net.cpp:419] inception_5b/relu_3x3 -> inception_5b/3x3 (in-place)
I0823 17:27:16.381058 29136 net.cpp:155] Setting up inception_5b/relu_3x3
I0823 17:27:16.381068 29136 net.cpp:163] Top shape: 32 384 7 7 (602112)
I0823 17:27:16.381075 29136 layer_factory.hpp:75] Creating layer inception_5b/5x5_reduce
I0823 17:27:16.381103 29136 net.cpp:110] Creating Layer inception_5b/5x5_reduce
I0823 17:27:16.381111 29136 net.cpp:476] inception_5b/5x5_reduce <- inception_5a/output_inception_5a/output_0_split_2
I0823 17:27:16.381121 29136 net.cpp:432] inception_5b/5x5_reduce -> inception_5b/5x5_reduce
I0823 17:27:16.381636 29136 net.cpp:155] Setting up inception_5b/5x5_reduce
I0823 17:27:16.381649 29136 net.cpp:163] Top shape: 32 48 7 7 (75264)
I0823 17:27:16.381659 29136 layer_factory.hpp:75] Creating layer inception_5b/relu_5x5_reduce
I0823 17:27:16.381669 29136 net.cpp:110] Creating Layer inception_5b/relu_5x5_reduce
I0823 17:27:16.381677 29136 net.cpp:476] inception_5b/relu_5x5_reduce <- inception_5b/5x5_reduce
I0823 17:27:16.381686 29136 net.cpp:419] inception_5b/relu_5x5_reduce -> inception_5b/5x5_reduce (in-place)
I0823 17:27:16.381746 29136 net.cpp:155] Setting up inception_5b/relu_5x5_reduce
I0823 17:27:16.381755 29136 net.cpp:163] Top shape: 32 48 7 7 (75264)
I0823 17:27:16.381762 29136 layer_factory.hpp:75] Creating layer inception_5b/5x5
I0823 17:27:16.381772 29136 net.cpp:110] Creating Layer inception_5b/5x5
I0823 17:27:16.381779 29136 net.cpp:476] inception_5b/5x5 <- inception_5b/5x5_reduce
I0823 17:27:16.381791 29136 net.cpp:432] inception_5b/5x5 -> inception_5b/5x5
I0823 17:27:16.382905 29136 net.cpp:155] Setting up inception_5b/5x5
I0823 17:27:16.382920 29136 net.cpp:163] Top shape: 32 128 7 7 (200704)
I0823 17:27:16.382930 29136 layer_factory.hpp:75] Creating layer inception_5b/relu_5x5
I0823 17:27:16.382940 29136 net.cpp:110] Creating Layer inception_5b/relu_5x5
I0823 17:27:16.382947 29136 net.cpp:476] inception_5b/relu_5x5 <- inception_5b/5x5
I0823 17:27:16.382956 29136 net.cpp:419] inception_5b/relu_5x5 -> inception_5b/5x5 (in-place)
I0823 17:27:16.383110 29136 net.cpp:155] Setting up inception_5b/relu_5x5
I0823 17:27:16.383133 29136 net.cpp:163] Top shape: 32 128 7 7 (200704)
I0823 17:27:16.383141 29136 layer_factory.hpp:75] Creating layer inception_5b/pool
I0823 17:27:16.383149 29136 layer_factory.cpp:60] CUDNN does not support padding or multiple tops. Using Caffe's own pooling layer.
I0823 17:27:16.383167 29136 net.cpp:110] Creating Layer inception_5b/pool
I0823 17:27:16.383173 29136 net.cpp:476] inception_5b/pool <- inception_5a/output_inception_5a/output_0_split_3
I0823 17:27:16.383193 29136 net.cpp:432] inception_5b/pool -> inception_5b/pool
I0823 17:27:16.383205 29136 net.cpp:155] Setting up inception_5b/pool
I0823 17:27:16.383213 29136 net.cpp:163] Top shape: 32 832 7 7 (1304576)
I0823 17:27:16.383219 29136 layer_factory.hpp:75] Creating layer inception_5b/pool_proj
I0823 17:27:16.383231 29136 net.cpp:110] Creating Layer inception_5b/pool_proj
I0823 17:27:16.383239 29136 net.cpp:476] inception_5b/pool_proj <- inception_5b/pool
I0823 17:27:16.383247 29136 net.cpp:432] inception_5b/pool_proj -> inception_5b/pool_proj
I0823 17:27:16.385808 29136 net.cpp:155] Setting up inception_5b/pool_proj
I0823 17:27:16.385853 29136 net.cpp:163] Top shape: 32 128 7 7 (200704)
I0823 17:27:16.385879 29136 layer_factory.hpp:75] Creating layer inception_5b/relu_pool_proj
I0823 17:27:16.385905 29136 net.cpp:110] Creating Layer inception_5b/relu_pool_proj
I0823 17:27:16.385924 29136 net.cpp:476] inception_5b/relu_pool_proj <- inception_5b/pool_proj
I0823 17:27:16.385946 29136 net.cpp:419] inception_5b/relu_pool_proj -> inception_5b/pool_proj (in-place)
I0823 17:27:16.386090 29136 net.cpp:155] Setting up inception_5b/relu_pool_proj
I0823 17:27:16.386116 29136 net.cpp:163] Top shape: 32 128 7 7 (200704)
I0823 17:27:16.386133 29136 layer_factory.hpp:75] Creating layer inception_5b/output
I0823 17:27:16.386157 29136 net.cpp:110] Creating Layer inception_5b/output
I0823 17:27:16.386174 29136 net.cpp:476] inception_5b/output <- inception_5b/1x1
I0823 17:27:16.386193 29136 net.cpp:476] inception_5b/output <- inception_5b/3x3
I0823 17:27:16.386211 29136 net.cpp:476] inception_5b/output <- inception_5b/5x5
I0823 17:27:16.386229 29136 net.cpp:476] inception_5b/output <- inception_5b/pool_proj
I0823 17:27:16.386281 29136 net.cpp:432] inception_5b/output -> inception_5b/output
I0823 17:27:16.386309 29136 net.cpp:155] Setting up inception_5b/output
I0823 17:27:16.386329 29136 net.cpp:163] Top shape: 32 1024 7 7 (1605632)
I0823 17:27:16.386345 29136 layer_factory.hpp:75] Creating layer pool5/7x7_s1
I0823 17:27:16.386365 29136 net.cpp:110] Creating Layer pool5/7x7_s1
I0823 17:27:16.386381 29136 net.cpp:476] pool5/7x7_s1 <- inception_5b/output
I0823 17:27:16.386406 29136 net.cpp:432] pool5/7x7_s1 -> pool5/7x7_s1
I0823 17:27:16.386548 29136 net.cpp:155] Setting up pool5/7x7_s1
I0823 17:27:16.386574 29136 net.cpp:163] Top shape: 32 1024 1 1 (32768)
I0823 17:27:16.386590 29136 layer_factory.hpp:75] Creating layer pool5/drop_7x7_s1
I0823 17:27:16.386610 29136 net.cpp:110] Creating Layer pool5/drop_7x7_s1
I0823 17:27:16.386626 29136 net.cpp:476] pool5/drop_7x7_s1 <- pool5/7x7_s1
I0823 17:27:16.386648 29136 net.cpp:419] pool5/drop_7x7_s1 -> pool5/7x7_s1 (in-place)
I0823 17:27:16.386674 29136 net.cpp:155] Setting up pool5/drop_7x7_s1
I0823 17:27:16.386693 29136 net.cpp:163] Top shape: 32 1024 1 1 (32768)
I0823 17:27:16.386709 29136 layer_factory.hpp:75] Creating layer loss3/classifier
I0823 17:27:16.386731 29136 net.cpp:110] Creating Layer loss3/classifier
I0823 17:27:16.386747 29136 net.cpp:476] loss3/classifier <- pool5/7x7_s1
I0823 17:27:16.386771 29136 net.cpp:432] loss3/classifier -> loss3/classifier
I0823 17:27:16.400362 29136 net.cpp:155] Setting up loss3/classifier
I0823 17:27:16.400387 29136 net.cpp:163] Top shape: 32 1000 (32000)
I0823 17:27:16.400399 29136 layer_factory.hpp:75] Creating layer loss3/loss3
I0823 17:27:16.400411 29136 net.cpp:110] Creating Layer loss3/loss3
I0823 17:27:16.400419 29136 net.cpp:476] loss3/loss3 <- loss3/classifier
I0823 17:27:16.400429 29136 net.cpp:476] loss3/loss3 <- label_data_1_split_2
I0823 17:27:16.400439 29136 net.cpp:432] loss3/loss3 -> loss3/loss3
I0823 17:27:16.400452 29136 layer_factory.hpp:75] Creating layer loss3/loss3
…
I0823 17:27:16.406239 29136 net.cpp:339] The NetState phase (1) differed from the phase (0) specified by a rule in layer data
I0823 17:27:16.407721 29136 net.cpp:50] Initializing net from parameters: 
name: "GoogleNet"
state {
  phase: TEST
}
layer {
  name: "data"
  type: "Data"
  top: "data"
  top: "label"
  include {
    phase: TEST
  }
  transform_param {
    mirror: false
    crop_size: 224
    mean_value: 104
    mean_value: 117
    mean_value: 123
  }
  data_param {
    source: "examples/imagenet/ilsvrc12_val_lmdb"
    batch_size: 50
    backend: LMDB
  }
}
layer {
  name: "conv1/7x7_s2"
  type: "Convolution"
  bottom: "data"
  top: "conv1/7x7_s2"
  param {
    lr_mult: 1
    decay_mult: 1
  }
  param {
    lr_mult: 2
    decay_mult: 0
  }
  convolution_param {
    num_output: 64
    pad: 3
    kernel_size: 7
    stride: 2
    weight_filler {
      type: "xavier"
    }
    bias_filler {
      type: "constant"
      value: 0.2
    }
  }
}
layer {
  name: "conv1/relu_7x7"
  type: "ReLU"
  bottom: "conv1/7x7_s2"
  top: "conv1/7x7_s2"
}
layer {
  name: "pool1/3x3_s2"
  type: "Pooling"
  bottom: "conv1/7x7_s2"
  top: "pool1/3x3_s2"
  pooling_param {
    pool: MAX
    kernel_size: 3
    stride: 2
  }
}
layer {
  name: "pool1/norm1"
  type: "LRN"
  bottom: "pool1/3x3_s2"
  top: "pool1/norm1"
  lrn_param {
    local_size: 5
    alpha: 0.0001
    beta: 0.75
  }
}
layer {
  name: "conv2/3x3_reduce"
  type: "Convolution"
  bottom: "pool1/norm1"
  top: "conv2/3x3_reduce"
  param {
    lr_mult: 1
    decay_mult: 1
  }
  param {
    lr_mult: 2
    decay_mult: 0
  }
  convolution_param {
    num_output: 64
    kernel_size: 1
    weight_filler {
      type: "xavier"
    }
    bias_filler {
      type: "constant"
      value: 0.2
    }
  }
}
layer {
  name: "conv2/relu_3x3_reduce"
  type: "ReLU"
  bottom: "conv2/3x3_reduce"
  top: "conv2/3x3_reduce"
}
layer {
  name: "conv2/3x3"
  type: "Convolution"
  bottom: "conv2/3x3_reduce"
  top: "conv2/3x3"
  param {
    lr_mult: 1
    decay_mult: 1
  }
  param {
    lr_mult: 2
    decay_mult: 0
  }
  convolution_param {
    num_output: 192
    pad: 1
    kernel_size: 3
    weight_filler {
      type: "xavier"
    }
    bias_filler {
      type: "constant"
      value: 0.2
    }
  }
}
layer {
  name: "conv2/relu_3x3"
  type: "ReLU"
  bottom: "conv2/3x3"
  top: "conv2/3x3"
}
layer {
  name: "conv2/norm2"
  type: "LRN"
  bottom: "conv2/3x3"
  top: "conv2/norm2"
  lrn_param {
    local_size: 5
    alpha: 0.0001
    beta: 0.75
  }
}
layer {
  name: "pool2/3x3_s2"
  type: "Pooling"
  bottom: "conv2/norm2"
  top: "pool2/3x3_s2"
  pooling_param {
    pool: MAX
    kernel_size: 3
    stride: 2
  }
}
layer {
  name: "inception_3a/1x1"
  type: "Convolution"
  bottom: "pool2/3x3_s2"
  top: "inception_3a/1x1"
  param {
    lr_mult: 1
    decay_mult: 1
  }
  param {
    lr_mult: 2
    decay_mult: 0
  }
  convolution_param {
    num_output: 64
    kernel_size: 1
    weight_filler {
      type: "xavier"
    }
    bias_filler {
      type: "constant"
      value: 0.2
    }
  }
}
layer {
  name: "inception_3a/relu_1x1"
  type: "ReLU"
  bottom: "inception_3a/1x1"
  top: "inception_3a/1x1"
}
layer {
  name: "inception_3a/3x3_reduce"
  type: "Convolution"
  bottom: "pool2/3x3_s2"
  top: "inception_3a/3x3_reduce"
  param {
    lr_mult: 1
    decay_mult: 1
  }
  param {
    lr_mult: 2
    decay_mult: 0
  }
  convolution_param {
    num_output: 96
    kernel_size: 1
    weight_filler {
      type: "xavier"
    }
    bias_filler {
      type: "constant"
      value: 0.2
    }
  }
}
layer {
  name: "inception_3a/relu_3x3_reduce"
  type: "ReLU"
  bottom: "inception_3a/3x3_reduce"
  top: "inception_3a/3x3_reduce"
}
layer {
  name: "inception_3a/3x3"
  type: "Convolution"
  bottom: "inception_3a/3x3_reduce"
  top: "inception_3a/3x3"
  param {
    lr_mult: 1
    decay_mult: 1
  }
  param {
    lr_mult: 2
    decay_mult: 0
  }
  convolution_param {
    num_output: 128
    pad: 1
    kernel_size: 3
    weight_filler {
      type: "xavier"
    }
    bias_filler {
      type: "constant"
      value: 0.2
    }
  }
}
layer {
  name: "inception_3a/relu_3x3"
  type: "ReLU"
  bottom: "inception_3a/3x3"
  top: "inception_3a/3x3"
}
layer {
  name: "inception_3a/5x5_reduce"
  type: "Convolution"
  bottom: "pool2/3x3_s2"
  top: "inception_3a/5x5_reduce"
  param {
    lr_mult: 1
    decay_mult: 1
  }
  param {
    lr_mult: 2
    decay_mult: 0
  }
  convolution_param {
    num_output: 16
    kernel_size: 1
    weight_filler {
      type: "xavier"
    }
    bias_filler {
      type: "constant"
      value: 0.2
    }
  }
}
layer {
  name: "inception_3a/relu_5x5_reduce"
  type: "ReLU"
  bottom: "inception_3a/5x5_reduce"
  top: "inception_3a/5x5_reduce"
}
layer {
  name: "inception_3a/5x5"
  type: "Convolution"
  bottom: "inception_3a/5x5_reduce"
  top: "inception_3a/5x5"
  param {
    lr_mult: 1
    decay_mult: 1
  }
  param {
    lr_mult: 2
    decay_mult: 0
  }
  convolution_param {
    num_output: 32
    pad: 2
    kernel_size: 5
    weight_filler {
      type: "xavier"
    }
    bias_filler {
      type: "constant"
      value: 0.2
    }
  }
}
layer {
  name: "inception_3a/relu_5x5"
  type: "ReLU"
  bottom: "inception_3a/5x5"
  top: "inception_3a/5x5"
}
layer {
  name: "inception_3a/pool"
  type: "Pooling"
  bottom: "pool2/3x3_s2"
  top: "inception_3a/pool"
  pooling_param {
    pool: MAX
    kernel_size: 3
    stride: 1
    pad: 1
  }
}
layer {
  name: "inception_3a/pool_proj"
  type: "Convolution"
  bottom: "inception_3a/pool"
  top: "inception_3a/pool_proj"
  param {
    lr_mult: 1
    decay_mult: 1
  }
  param {
    lr_mult: 2
    decay_mult: 0
  }
  convolution_param {
    num_output: 32
    kernel_size: 1
    weight_filler {
      type: "xavier"
    }
    bias_filler {
      type: "constant"
      value: 0.2
    }
  }
}
layer {
  name: "inception_3a/relu_pool_proj"
  type: "ReLU"
  bottom: "inception_3a/pool_proj"
  top: "inception_3a/pool_proj"
}
layer {
  name: "inception_3a/output"
  type: "Concat"
  bottom: "inception_3a/1x1"
  bottom: "inception_3a/3x3"
  bottom: "inception_3a/5x5"
  bottom: "inception_3a/pool_proj"
  top: "inception_3a/output"
}
layer {
  name: "inception_3b/1x1"
  type: "Convolution"
  bottom: "inception_3a/output"
  top: "inception_3b/1x1"
  param {
    lr_mult: 1
    decay_mult: 1
  }
  param {
    lr_mult: 2
    decay_mult: 0
  }
  convolution_param {
    num_output: 128
    kernel_size: 1
    weight_filler {
      type: "xavier"
    }
    bias_filler {
      type: "constant"
      value: 0.2
    }
  }
}
layer {
  name: "inception_3b/relu_1x1"
  type: "ReLU"
  bottom: "inception_3b/1x1"
  top: "inception_3b/1x1"
}
layer {
  name: "inception_3b/3x3_reduce"
  type: "Convolution"
  bottom: "inception_3a/output"
  top: "inception_3b/3x3_reduce"
  param {
    lr_mult: 1
    decay_mult: 1
  }
  param {
    lr_mult: 2
    decay_mult: 0
  }
  convolution_param {
    num_output: 128
    kernel_size: 1
    weight_filler {
      type: "xavier"
    }
    bias_filler {
      type: "constant"
      value: 0.2
    }
  }
}
layer {
  name: "inception_3b/relu_3x3_reduce"
  type: "ReLU"
  bottom: "inception_3b/3x3_reduce"
  top: "inception_3b/3x3_reduce"
}
layer {
  name: "inception_3b/3x3"
  type: "Convolution"
  bottom: "inception_3b/3x3_reduce"
  top: "inception_3b/3x3"
  param {
    lr_mult: 1
    decay_mult: 1
  }
  param {
    lr_mult: 2
    decay_mult: 0
  }
  convolution_param {
    num_output: 192
    pad: 1
    kernel_size: 3
    weight_filler {
      type: "xavier"
    }
    bias_filler {
      type: "constant"
      value: 0.2
    }
  }
}
layer {
  name: "inception_3b/relu_3x3"
  type: "ReLU"
  bottom: "inception_3b/3x3"
  top: "inception_3b/3x3"
}
layer {
  name: "inception_3b/5x5_reduce"
  type: "Convolution"
  bottom: "inception_3a/output"
  top: "inception_3b/5x5_reduce"
  param {
    lr_mult: 1
    decay_mult: 1
  }
  param {
    lr_mult: 2
    decay_mult: 0
  }
  convolution_param {
    num_output: 32
    kernel_size: 1
    weight_filler {
      type: "xavier"
    }
    bias_filler {
      type: "constant"
      value: 0.2
    }
  }
}
layer {
  name: "inception_3b/relu_5x5_reduce"
  type: "ReLU"
  bottom: "inception_3b/5x5_reduce"
  top: "inception_3b/5x5_reduce"
}
layer {
  name: "inception_3b/5x5"
  type: "Convolution"
  bottom: "inception_3b/5x5_reduce"
  top: "inception_3b/5x5"
  param {
    lr_mult: 1
    decay_mult: 1
  }
  param {
    lr_mult: 2
    decay_mult: 0
  }
  convolution_param {
    num_output: 96
    pad: 2
    kernel_size: 5
    weight_filler {
      type: "xavier"
    }
    bias_filler {
      type: "constant"
      value: 0.2
    }
  }
}
layer {
  name: "inception_3b/relu_5x5"
  type: "ReLU"
  bottom: "inception_3b/5x5"
  top: "inception_3b/5x5"
}
layer {
  name: "inception_3b/pool"
  type: "Pooling"
  bottom: "inception_3a/output"
  top: "inception_3b/pool"
  pooling_param {
    pool: MAX
    kernel_size: 3
    stride: 1
    pad: 1
  }
}
layer {
  name: "inception_3b/pool_proj"
  type: "Convolution"
  bottom: "inception_3b/pool"
  top: "inception_3b/pool_proj"
  param {
    lr_mult: 1
    decay_mult: 1
  }
  param {
    lr_mult: 2
    decay_mult: 0
  }
  convolution_param {
    num_output: 64
    kernel_size: 1
    weight_filler {
      type: "xavier"
    }
    bias_filler {
      type: "constant"
      value: 0.2
    }
  }
}
layer {
  name: "inception_3b/relu_pool_proj"
  type: "ReLU"
  bottom: "inception_3b/pool_proj"
  top: "inception_3b/pool_proj"
}
layer {
  name: "inception_3b/output"
  type: "Concat"
  bottom: "inception_3b/1x1"
  bottom: "inception_3b/3x3"
  bottom: "inception_3b/5x5"
  bottom: "inception_3b/pool_proj"
  top: "inception_3b/output"
}
layer {
  name: "pool3/3x3_s2"
  type: "Pooling"
  bottom: "inception_3b/output"
  top: "pool3/3x3_s2"
  pooling_param {
    pool: MAX
    kernel_size: 3
    stride: 2
  }
}
layer {
  name: "inception_4a/1x1"
  type: "Convolution"
  bottom: "pool3/3x3_s2"
  top: "inception_4a/1x1"
  param {
    lr_mult: 1
    decay_mult: 1
  }
  param {
    lr_mult: 2
    decay_mult: 0
  }
  convolution_param {
    num_output: 192
    kernel_size: 1
    weight_filler {
      type: "xavier"
    }
    bias_filler {
      type: "constant"
      value: 0.2
    }
  }
}
layer {
  name: "inception_4a/relu_1x1"
  type: "ReLU"
  bottom: "inception_4a/1x1"
  top: "inception_4a/1x1"
}
layer {
  name: "inception_4a/3x3_reduce"
  type: "Convolution"
  bottom: "pool3/3x3_s2"
  top: "inception_4a/3x3_reduce"
  param {
    lr_mult: 1
    decay_mult: 1
  }
  param {
    lr_mult: 2
    decay_mult: 0
  }
  convolution_param {
    num_output: 96
    kernel_size: 1
    weight_filler {
      type: "xavier"
    }
    bias_filler {
      type: "constant"
      value: 0.2
    }
  }
}
layer {
  name: "inception_4a/relu_3x3_reduce"
  type: "ReLU"
  bottom: "inception_4a/3x3_reduce"
  top: "inception_4a/3x3_reduce"
}
layer {
  name: "inception_4a/3x3"
  type: "Convolution"
  bottom: "inception_4a/3x3_reduce"
  top: "inception_4a/3x3"
  param {
    lr_mult: 1
    decay_mult: 1
  }
  param {
    lr_mult: 2
    decay_mult: 0
  }
  convolution_param {
    num_output: 208
    pad: 1
    kernel_size: 3
    weight_filler {
      type: "xavier"
    }
    bias_filler {
      type: "constant"
      value: 0.2
    }
  }
}
layer {
  name: "inception_4a/relu_3x3"
  type: "ReLU"
  bottom: "inception_4a/3x3"
  top: "inception_4a/3x3"
}
layer {
  name: "inception_4a/5x5_reduce"
  type: "Convolution"
  bottom: "pool3/3x3_s2"
  top: "inception_4a/5x5_reduce"
  param {
    lr_mult: 1
    decay_mult: 1
  }
  param {
    lr_mult: 2
    decay_mult: 0
  }
  convolution_param {
    num_output: 16
    kernel_size: 1
    weight_filler {
      type: "xavier"
    }
    bias_filler {
      type: "constant"
      value: 0.2
    }
  }
}
layer {
  name: "inception_4a/relu_5x5_reduce"
  type: "ReLU"
  bottom: "inception_4a/5x5_reduce"
  top: "inception_4a/5x5_reduce"
}
layer {
  name: "inception_4a/5x5"
  type: "Convolution"
  bottom: "inception_4a/5x5_reduce"
  top: "inception_4a/5x5"
  param {
    lr_mult: 1
    decay_mult: 1
  }
  param {
    lr_mult: 2
    decay_mult: 0
  }
  convolution_param {
    num_output: 48
    pad: 2
    kernel_size: 5
    weight_filler {
      type: "xavier"
    }
    bias_filler {
      type: "constant"
      value: 0.2
    }
  }
}
layer {
  name: "inception_4a/relu_5x5"
  type: "ReLU"
  bottom: "inception_4a/5x5"
  top: "inception_4a/5x5"
}
layer {
  name: "inception_4a/pool"
  type: "Pooling"
  bottom: "pool3/3x3_s2"
  top: "inception_4a/pool"
  pooling_param {
    pool: MAX
    kernel_size: 3
    stride: 1
    pad: 1
  }
}
layer {
  name: "inception_4a/pool_proj"
  type: "Convolution"
  bottom: "inception_4a/pool"
  top: "inception_4a/pool_proj"
  param {
    lr_mult: 1
    decay_mult: 1
  }
  param {
    lr_mult: 2
    decay_mult: 0
  }
  convolution_param {
    num_output: 64
    kernel_size: 1
    weight_filler {
      type: "xavier"
    }
    bias_filler {
      type: "constant"
      value: 0.2
    }
  }
}
layer {
  name: "inception_4a/relu_pool_proj"
  type: "ReLU"
  bottom: "inception_4a/pool_proj"
  top: "inception_4a/pool_proj"
}
layer {
  name: "inception_4a/output"
  type: "Concat"
  bottom: "inception_4a/1x1"
  bottom: "inception_4a/3x3"
  bottom: "inception_4a/5x5"
  bottom: "inception_4a/pool_proj"
  top: "inception_4a/output"
}
layer {
  name: "loss1/ave_pool"
  type: "Pooling"
  bottom: "inception_4a/output"
  top: "loss1/ave_pool"
  pooling_param {
    pool: AVE
    kernel_size: 5
    stride: 3
  }
}
layer {
  name: "loss1/conv"
  type: "Convolution"
  bottom: "loss1/ave_pool"
  top: "loss1/conv"
  param {
    lr_mult: 1
    decay_mult: 1
  }
  param {
    lr_mult: 2
    decay_mult: 0
  }
  convolution_param {
    num_output: 128
    kernel_size: 1
    weight_filler {
      type: "xavier"
    }
    bias_filler {
      type: "constant"
      value: 0.2
    }
  }
}
layer {
  name: "loss1/relu_conv"
  type: "ReLU"
  bottom: "loss1/conv"
  top: "loss1/conv"
}
layer {
  name: "loss1/fc"
  type: "InnerProduct"
  bottom: "loss1/conv"
  top: "loss1/fc"
  param {
    lr_mult: 1
    decay_mult: 1
  }
  param {
    lr_mult: 2
    decay_mult: 0
  }
  inner_product_param {
    num_output: 1024
    weight_filler {
      type: "xavier"
    }
    bias_filler {
      type: "constant"
      value: 0.2
    }
  }
}
layer {
  name: "loss1/relu_fc"
  type: "ReLU"
  bottom: "loss1/fc"
  top: "loss1/fc"
}
layer {
  name: "loss1/drop_fc"
  type: "Dropout"
  bottom: "loss1/fc"
  top: "loss1/fc"
  dropout_param {
    dropout_ratio: 0.7
  }
}
layer {
  name: "loss1/classifier"
  type: "InnerProduct"
  bottom: "loss1/fc"
  top: "loss1/classifier"
  param {
    lr_mult: 1
    decay_mult: 1
  }
  param {
    lr_mult: 2
    decay_mult: 0
  }
  inner_product_param {
    num_output: 1000
    weight_filler {
      type: "xavier"
    }
    bias_filler {
      type: "constant"
      value: 0
    }
  }
}
layer {
  name: "loss1/loss"
  type: "SoftmaxWithLoss"
  bottom: "loss1/classifier"
  bottom: "label"
  top: "loss1/loss1"
  loss_weight: 0.3
}
layer {
  name: "loss1/top-1"
  type: "Accuracy"
  bottom: "loss1/classifier"
  bottom: "label"
  top: "loss1/top-1"
  include {
    phase: TEST
  }
}
layer {
  name: "loss1/top-5"
  type: "Accuracy"
  bottom: "loss1/classifier"
  bottom: "label"
  top: "loss1/top-5"
  include {
    phase: TEST
  }
  accuracy_param {
    top_k: 5
  }
}
layer {
  name: "inception_4b/1x1"
  type: "Convolution"
  bottom: "inception_4a/output"
  top: "inception_4b/1x1"
  param {
    lr_mult: 1
    decay_mult: 1
  }
  param {
    lr_mult: 2
    decay_mult: 0
  }
  convolution_param {
    num_output: 160
    kernel_size: 1
    weight_filler {
      type: "xavier"
    }
    bias_filler {
      type: "constant"
      value: 0.2
    }
  }
}
layer {
  name: "inception_4b/relu_1x1"
  type: "ReLU"
  bottom: "inception_4b/1x1"
  top: "inception_4b/1x1"
}
layer {
  name: "inception_4b/3x3_reduce"
  type: "Convolution"
  bottom: "inception_4a/output"
  top: "inception_4b/3x3_reduce"
  param {
    lr_mult: 1
    decay_mult: 1
  }
  param {
    lr_mult: 2
    decay_mult: 0
  }
  convolution_param {
    num_output: 112
    kernel_size: 1
    weight_filler {
      type: "xavier"
    }
    bias_filler {
      type: "constant"
      value: 0.2
    }
  }
}
layer {
  name: "inception_4b/relu_3x3_reduce"
  type: "ReLU"
  bottom: "inception_4b/3x3_reduce"
  top: "inception_4b/3x3_reduce"
}
layer {
  name: "inception_4b/3x3"
  type: "Convolution"
  bottom: "inception_4b/3x3_reduce"
  top: "inception_4b/3x3"
  param {
    lr_mult: 1
    decay_mult: 1
  }
  param {
    lr_mult: 2
    decay_mult: 0
  }
  convolution_param {
    num_output: 224
    pad: 1
    kernel_size: 3
    weight_filler {
      type: "xavier"
    }
    bias_filler {
      type: "constant"
      value: 0.2
    }
  }
}
layer {
  name: "inception_4b/relu_3x3"
  type: "ReLU"
  bottom: "inception_4b/3x3"
  top: "inception_4b/3x3"
}
layer {
  name: "inception_4b/5x5_reduce"
  type: "Convolution"
  bottom: "inception_4a/output"
  top: "inception_4b/5x5_reduce"
  param {
    lr_mult: 1
    decay_mult: 1
  }
  param {
    lr_mult: 2
    decay_mult: 0
  }
  convolution_param {
    num_output: 24
    kernel_size: 1
    weight_filler {
      type: "xavier"
    }
    bias_filler {
      type: "constant"
      value: 0.2
    }
  }
}
layer {
  name: "inception_4b/relu_5x5_reduce"
  type: "ReLU"
  bottom: "inception_4b/5x5_reduce"
  top: "inception_4b/5x5_reduce"
}
layer {
  name: "inception_4b/5x5"
  type: "Convolution"
  bottom: "inception_4b/5x5_reduce"
  top: "inception_4b/5x5"
  param {
    lr_mult: 1
    decay_mult: 1
  }
  param {
    lr_mult: 2
    decay_mult: 0
  }
  convolution_param {
    num_output: 64
    pad: 2
    kernel_size: 5
    weight_filler {
      type: "xavier"
    }
    bias_filler {
      type: "constant"
      value: 0.2
    }
  }
}
layer {
  name: "inception_4b/relu_5x5"
  type: "ReLU"
  bottom: "inception_4b/5x5"
  top: "inception_4b/5x5"
}
layer {
  name: "inception_4b/pool"
  type: "Pooling"
  bottom: "inception_4a/output"
  top: "inception_4b/pool"
  pooling_param {
    pool: MAX
    kernel_size: 3
    stride: 1
    pad: 1
  }
}
layer {
  name: "inception_4b/pool_proj"
  type: "Convolution"
  bottom: "inception_4b/pool"
  top: "inception_4b/pool_proj"
  param {
    lr_mult: 1
    decay_mult: 1
  }
  param {
    lr_mult: 2
    decay_mult: 0
  }
  convolution_param {
    num_output: 64
    kernel_size: 1
    weight_filler {
      type: "xavier"
    }
    bias_filler {
      type: "constant"
      value: 0.2
    }
  }
}
layer {
  name: "inception_4b/relu_pool_proj"
  type: "ReLU"
  bottom: "inception_4b/pool_proj"
  top: "inception_4b/pool_proj"
}
layer {
  name: "inception_4b/output"
  type: "Concat"
  bottom: "inception_4b/1x1"
  bottom: "inception_4b/3x3"
  bottom: "inception_4b/5x5"
  bottom: "inception_4b/pool_proj"
  top: "inception_4b/output"
}
layer {
  name: "inception_4c/1x1"
  type: "Convolution"
  bottom: "inception_4b/output"
  top: "inception_4c/1x1"
  param {
    lr_mult: 1
    decay_mult: 1
  }
  param {
    lr_mult: 2
    decay_mult: 0
  }
  convolution_param {
    num_output: 128
    kernel_size: 1
    weight_filler {
      type: "xavier"
    }
    bias_filler {
      type: "constant"
      value: 0.2
    }
  }
}
layer {
  name: "inception_4c/relu_1x1"
  type: "ReLU"
  bottom: "inception_4c/1x1"
  top: "inception_4c/1x1"
}
layer {
  name: "inception_4c/3x3_reduce"
  type: "Convolution"
  bottom: "inception_4b/output"
  top: "inception_4c/3x3_reduce"
  param {
    lr_mult: 1
    decay_mult: 1
  }
  param {
    lr_mult: 2
    decay_mult: 0
  }
  convolution_param {
    num_output: 128
    kernel_size: 1
    weight_filler {
      type: "xavier"
    }
    bias_filler {
      type: "constant"
      value: 0.2
    }
  }
}
layer {
  name: "inception_4c/relu_3x3_reduce"
  type: "ReLU"
  bottom: "inception_4c/3x3_reduce"
  top: "inception_4c/3x3_reduce"
}
layer {
  name: "inception_4c/3x3"
  type: "Convolution"
  bottom: "inception_4c/3x3_reduce"
  top: "inception_4c/3x3"
  param {
    lr_mult: 1
    decay_mult: 1
  }
  param {
    lr_mult: 2
    decay_mult: 0
  }
  convolution_param {
    num_output: 256
    pad: 1
    kernel_size: 3
    weight_filler {
      type: "xavier"
    }
    bias_filler {
      type: "constant"
      value: 0.2
    }
  }
}
layer {
  name: "inception_4c/relu_3x3"
  type: "ReLU"
  bottom: "inception_4c/3x3"
  top: "inception_4c/3x3"
}
layer {
  name: "inception_4c/5x5_reduce"
  type: "Convolution"
  bottom: "inception_4b/output"
  top: "inception_4c/5x5_reduce"
  param {
    lr_mult: 1
    decay_mult: 1
  }
  param {
    lr_mult: 2
    decay_mult: 0
  }
  convolution_param {
    num_output: 24
    kernel_size: 1
    weight_filler {
      type: "xavier"
    }
    bias_filler {
      type: "constant"
      value: 0.2
    }
  }
}
layer {
  name: "inception_4c/relu_5x5_reduce"
  type: "ReLU"
  bottom: "inception_4c/5x5_reduce"
  top: "inception_4c/5x5_reduce"
}
layer {
  name: "inception_4c/5x5"
  type: "Convolution"
  bottom: "inception_4c/5x5_reduce"
  top: "inception_4c/5x5"
  param {
    lr_mult: 1
    decay_mult: 1
  }
  param {
    lr_mult: 2
    decay_mult: 0
  }
  convolution_param {
    num_output: 64
    pad: 2
    kernel_size: 5
    weight_filler {
      type: "xavier"
    }
    bias_filler {
      type: "constant"
      value: 0.2
    }
  }
}
layer {
  name: "inception_4c/relu_5x5"
  type: "ReLU"
  bottom: "inception_4c/5x5"
  top: "inception_4c/5x5"
}
layer {
  name: "inception_4c/pool"
  type: "Pooling"
  bottom: "inception_4b/output"
  top: "inception_4c/pool"
  pooling_param {
    pool: MAX
    kernel_size: 3
    stride: 1
    pad: 1
  }
}
layer {
  name: "inception_4c/pool_proj"
  type: "Convolution"
  bottom: "inception_4c/pool"
  top: "inception_4c/pool_proj"
  param {
    lr_mult: 1
    decay_mult: 1
  }
  param {
    lr_mult: 2
    decay_mult: 0
  }
  convolution_param {
    num_output: 64
    kernel_size: 1
    weight_filler {
      type: "xavier"
    }
    bias_filler {
      type: "constant"
      value: 0.2
    }
  }
}
layer {
  name: "inception_4c/relu_pool_proj"
  type: "ReLU"
  bottom: "inception_4c/pool_proj"
  top: "inception_4c/pool_proj"
}
layer {
  name: "inception_4c/output"
  type: "Concat"
  bottom: "inception_4c/1x1"
  bottom: "inception_4c/3x3"
  bottom: "inception_4c/5x5"
  bottom: "inception_4c/pool_proj"
  top: "inception_4c/output"
}
layer {
  name: "inception_4d/1x1"
  type: "Convolution"
  bottom: "inception_4c/output"
  top: "inception_4d/1x1"
  param {
    lr_mult: 1
    decay_mult: 1
  }
  param {
    lr_mult: 2
    decay_mult: 0
  }
  convolution_param {
    num_output: 112
    kernel_size: 1
    weight_filler {
      type: "xavier"
    }
    bias_filler {
      type: "constant"
      value: 0.2
    }
  }
}
layer {
  name: "inception_4d/relu_1x1"
  type: "ReLU"
  bottom: "inception_4d/1x1"
  top: "inception_4d/1x1"
}
layer {
  name: "inception_4d/3x3_reduce"
  type: "Convolution"
  bottom: "inception_4c/output"
  top: "inception_4d/3x3_reduce"
  param {
    lr_mult: 1
    decay_mult: 1
  }
  param {
    lr_mult: 2
    decay_mult: 0
  }
  convolution_param {
    num_output: 144
    kernel_size: 1
    weight_filler {
      type: "xavier"
    }
    bias_filler {
      type: "constant"
      value: 0.2
    }
  }
}
layer {
  name: "inception_4d/relu_3x3_reduce"
  type: "ReLU"
  bottom: "inception_4d/3x3_reduce"
  top: "inception_4d/3x3_reduce"
}
layer {
  name: "inception_4d/3x3"
  type: "Convolution"
  bottom: "inception_4d/3x3_reduce"
  top: "inception_4d/3x3"
  param {
    lr_mult: 1
    decay_mult: 1
  }
  param {
    lr_mult: 2
    decay_mult: 0
  }
  convolution_param {
    num_output: 288
    pad: 1
    kernel_size: 3
    weight_filler {
      type: "xavier"
    }
    bias_filler {
      type: "constant"
      value: 0.2
    }
  }
}
layer {
  name: "inception_4d/relu_3x3"
  type: "ReLU"
  bottom: "inception_4d/3x3"
  top: "inception_4d/3x3"
}
layer {
  name: "inception_4d/5x5_reduce"
  type: "Convolution"
  bottom: "inception_4c/output"
  top: "inception_4d/5x5_reduce"
  param {
    lr_mult: 1
    decay_mult: 1
  }
  param {
    lr_mult: 2
    decay_mult: 0
  }
  convolution_param {
    num_output: 32
    kernel_size: 1
    weight_filler {
      type: "xavier"
    }
    bias_filler {
      type: "constant"
      value: 0.2
    }
  }
}
layer {
  name: "inception_4d/relu_5x5_reduce"
  type: "ReLU"
  bottom: "inception_4d/5x5_reduce"
  top: "inception_4d/5x5_reduce"
}
layer {
  name: "inception_4d/5x5"
  type: "Convolution"
  bottom: "inception_4d/5x5_reduce"
  top: "inception_4d/5x5"
  param {
    lr_mult: 1
    decay_mult: 1
  }
  param {
    lr_mult: 2
    decay_mult: 0
  }
  convolution_param {
    num_output: 64
    pad: 2
    kernel_size: 5
    weight_filler {
      type: "xavier"
    }
    bias_filler {
      type: "constant"
      value: 0.2
    }
  }
}
layer {
  name: "inception_4d/relu_5x5"
  type: "ReLU"
  bottom: "inception_4d/5x5"
  top: "inception_4d/5x5"
}
layer {
  name: "inception_4d/pool"
  type: "Pooling"
  bottom: "inception_4c/output"
  top: "inception_4d/pool"
  pooling_param {
    pool: MAX
    kernel_size: 3
    stride: 1
    pad: 1
  }
}
layer {
  name: "inception_4d/pool_proj"
  type: "Convolution"
  bottom: "inception_4d/pool"
  top: "inception_4d/pool_proj"
  param {
    lr_mult: 1
    decay_mult: 1
  }
  param {
    lr_mult: 2
    decay_mult: 0
  }
  convolution_param {
    num_output: 64
    kernel_size: 1
    weight_filler {
      type: "xavier"
    }
    bias_filler {
      type: "constant"
      value: 0.2
    }
  }
}
layer {
  name: "inception_4d/relu_pool_proj"
  type: "ReLU"
  bottom: "inception_4d/pool_proj"
  top: "inception_4d/pool_proj"
}
layer {
  name: "inception_4d/output"
  type: "Concat"
  bottom: "inception_4d/1x1"
  bottom: "inception_4d/3x3"
  bottom: "inception_4d/5x5"
  bottom: "inception_4d/pool_proj"
  top: "inception_4d/output"
}
layer {
  name: "loss2/ave_pool"
  type: "Pooling"
  bottom: "inception_4d/output"
  top: "loss2/ave_pool"
  pooling_param {
    pool: AVE
    kernel_size: 5
    stride: 3
  }
}
layer {
  name: "loss2/conv"
  type: "Convolution"
  bottom: "loss2/ave_pool"
  top: "loss2/conv"
  param {
    lr_mult: 1
    decay_mult: 1
  }
  param {
    lr_mult: 2
    decay_mult: 0
  }
  convolution_param {
    num_output: 128
    kernel_size: 1
    weight_filler {
      type: "xavier"
    }
…
I0823 17:27:16.642758 29136 net.cpp:163] Top shape: 50 512 14 14 (5017600)
I0823 17:27:16.642771 29136 net.cpp:163] Top shape: 50 512 14 14 (5017600)
I0823 17:27:16.642781 29136 layer_factory.hpp:75] Creating layer inception_4c/1x1
I0823 17:27:16.642799 29136 net.cpp:110] Creating Layer inception_4c/1x1
I0823 17:27:16.642812 29136 net.cpp:476] inception_4c/1x1 <- inception_4b/output_inception_4b/output_0_split_0
I0823 17:27:16.642827 29136 net.cpp:432] inception_4c/1x1 -> inception_4c/1x1
I0823 17:27:16.643910 29136 net.cpp:155] Setting up inception_4c/1x1
I0823 17:27:16.643939 29136 net.cpp:163] Top shape: 50 128 14 14 (1254400)
I0823 17:27:16.643960 29136 layer_factory.hpp:75] Creating layer inception_4c/relu_1x1
I0823 17:27:16.643978 29136 net.cpp:110] Creating Layer inception_4c/relu_1x1
I0823 17:27:16.643992 29136 net.cpp:476] inception_4c/relu_1x1 <- inception_4c/1x1
I0823 17:27:16.644008 29136 net.cpp:419] inception_4c/relu_1x1 -> inception_4c/1x1 (in-place)
I0823 17:27:16.644103 29136 net.cpp:155] Setting up inception_4c/relu_1x1
I0823 17:27:16.644119 29136 net.cpp:163] Top shape: 50 128 14 14 (1254400)
I0823 17:27:16.644130 29136 layer_factory.hpp:75] Creating layer inception_4c/3x3_reduce
I0823 17:27:16.644148 29136 net.cpp:110] Creating Layer inception_4c/3x3_reduce
I0823 17:27:16.644160 29136 net.cpp:476] inception_4c/3x3_reduce <- inception_4b/output_inception_4b/output_0_split_1
I0823 17:27:16.644176 29136 net.cpp:432] inception_4c/3x3_reduce -> inception_4c/3x3_reduce
I0823 17:27:16.645159 29136 net.cpp:155] Setting up inception_4c/3x3_reduce
I0823 17:27:16.645175 29136 net.cpp:163] Top shape: 50 128 14 14 (1254400)
I0823 17:27:16.645186 29136 layer_factory.hpp:75] Creating layer inception_4c/relu_3x3_reduce
I0823 17:27:16.645198 29136 net.cpp:110] Creating Layer inception_4c/relu_3x3_reduce
I0823 17:27:16.645227 29136 net.cpp:476] inception_4c/relu_3x3_reduce <- inception_4c/3x3_reduce
I0823 17:27:16.645237 29136 net.cpp:419] inception_4c/relu_3x3_reduce -> inception_4c/3x3_reduce (in-place)
I0823 17:27:16.645303 29136 net.cpp:155] Setting up inception_4c/relu_3x3_reduce
I0823 17:27:16.645313 29136 net.cpp:163] Top shape: 50 128 14 14 (1254400)
I0823 17:27:16.645321 29136 layer_factory.hpp:75] Creating layer inception_4c/3x3
I0823 17:27:16.645334 29136 net.cpp:110] Creating Layer inception_4c/3x3
I0823 17:27:16.645341 29136 net.cpp:476] inception_4c/3x3 <- inception_4c/3x3_reduce
I0823 17:27:16.645351 29136 net.cpp:432] inception_4c/3x3 -> inception_4c/3x3
I0823 17:27:16.647961 29136 net.cpp:155] Setting up inception_4c/3x3
I0823 17:27:16.647990 29136 net.cpp:163] Top shape: 50 256 14 14 (2508800)
I0823 17:27:16.648017 29136 layer_factory.hpp:75] Creating layer inception_4c/relu_3x3
I0823 17:27:16.648032 29136 net.cpp:110] Creating Layer inception_4c/relu_3x3
I0823 17:27:16.648042 29136 net.cpp:476] inception_4c/relu_3x3 <- inception_4c/3x3
I0823 17:27:16.648052 29136 net.cpp:419] inception_4c/relu_3x3 -> inception_4c/3x3 (in-place)
I0823 17:27:16.648118 29136 net.cpp:155] Setting up inception_4c/relu_3x3
I0823 17:27:16.648128 29136 net.cpp:163] Top shape: 50 256 14 14 (2508800)
I0823 17:27:16.648136 29136 layer_factory.hpp:75] Creating layer inception_4c/5x5_reduce
I0823 17:27:16.648150 29136 net.cpp:110] Creating Layer inception_4c/5x5_reduce
I0823 17:27:16.648159 29136 net.cpp:476] inception_4c/5x5_reduce <- inception_4b/output_inception_4b/output_0_split_2
I0823 17:27:16.648169 29136 net.cpp:432] inception_4c/5x5_reduce -> inception_4c/5x5_reduce
I0823 17:27:16.648663 29136 net.cpp:155] Setting up inception_4c/5x5_reduce
I0823 17:27:16.648679 29136 net.cpp:163] Top shape: 50 24 14 14 (235200)
I0823 17:27:16.648689 29136 layer_factory.hpp:75] Creating layer inception_4c/relu_5x5_reduce
I0823 17:27:16.648701 29136 net.cpp:110] Creating Layer inception_4c/relu_5x5_reduce
I0823 17:27:16.648710 29136 net.cpp:476] inception_4c/relu_5x5_reduce <- inception_4c/5x5_reduce
I0823 17:27:16.648718 29136 net.cpp:419] inception_4c/relu_5x5_reduce -> inception_4c/5x5_reduce (in-place)
I0823 17:27:16.648895 29136 net.cpp:155] Setting up inception_4c/relu_5x5_reduce
I0823 17:27:16.648908 29136 net.cpp:163] Top shape: 50 24 14 14 (235200)
I0823 17:27:16.648916 29136 layer_factory.hpp:75] Creating layer inception_4c/5x5
I0823 17:27:16.648928 29136 net.cpp:110] Creating Layer inception_4c/5x5
I0823 17:27:16.648936 29136 net.cpp:476] inception_4c/5x5 <- inception_4c/5x5_reduce
I0823 17:27:16.648957 29136 net.cpp:432] inception_4c/5x5 -> inception_4c/5x5
I0823 17:27:16.649562 29136 net.cpp:155] Setting up inception_4c/5x5
I0823 17:27:16.649577 29136 net.cpp:163] Top shape: 50 64 14 14 (627200)
I0823 17:27:16.649588 29136 layer_factory.hpp:75] Creating layer inception_4c/relu_5x5
I0823 17:27:16.649600 29136 net.cpp:110] Creating Layer inception_4c/relu_5x5
I0823 17:27:16.649607 29136 net.cpp:476] inception_4c/relu_5x5 <- inception_4c/5x5
I0823 17:27:16.649616 29136 net.cpp:419] inception_4c/relu_5x5 -> inception_4c/5x5 (in-place)
I0823 17:27:16.649682 29136 net.cpp:155] Setting up inception_4c/relu_5x5
I0823 17:27:16.649694 29136 net.cpp:163] Top shape: 50 64 14 14 (627200)
I0823 17:27:16.649703 29136 layer_factory.hpp:75] Creating layer inception_4c/pool
I0823 17:27:16.649710 29136 layer_factory.cpp:60] CUDNN does not support padding or multiple tops. Using Caffe's own pooling layer.
I0823 17:27:16.649719 29136 net.cpp:110] Creating Layer inception_4c/pool
I0823 17:27:16.649726 29136 net.cpp:476] inception_4c/pool <- inception_4b/output_inception_4b/output_0_split_3
I0823 17:27:16.649737 29136 net.cpp:432] inception_4c/pool -> inception_4c/pool
I0823 17:27:16.649752 29136 net.cpp:155] Setting up inception_4c/pool
I0823 17:27:16.649761 29136 net.cpp:163] Top shape: 50 512 14 14 (5017600)
I0823 17:27:16.649768 29136 layer_factory.hpp:75] Creating layer inception_4c/pool_proj
I0823 17:27:16.649780 29136 net.cpp:110] Creating Layer inception_4c/pool_proj
I0823 17:27:16.649809 29136 net.cpp:476] inception_4c/pool_proj <- inception_4c/pool
I0823 17:27:16.649822 29136 net.cpp:432] inception_4c/pool_proj -> inception_4c/pool_proj
I0823 17:27:16.650818 29136 net.cpp:155] Setting up inception_4c/pool_proj
I0823 17:27:16.650833 29136 net.cpp:163] Top shape: 50 64 14 14 (627200)
I0823 17:27:16.650846 29136 layer_factory.hpp:75] Creating layer inception_4c/relu_pool_proj
I0823 17:27:16.650856 29136 net.cpp:110] Creating Layer inception_4c/relu_pool_proj
I0823 17:27:16.650863 29136 net.cpp:476] inception_4c/relu_pool_proj <- inception_4c/pool_proj
I0823 17:27:16.650874 29136 net.cpp:419] inception_4c/relu_pool_proj -> inception_4c/pool_proj (in-place)
I0823 17:27:16.650938 29136 net.cpp:155] Setting up inception_4c/relu_pool_proj
I0823 17:27:16.650950 29136 net.cpp:163] Top shape: 50 64 14 14 (627200)
I0823 17:27:16.650959 29136 layer_factory.hpp:75] Creating layer inception_4c/output
I0823 17:27:16.650967 29136 net.cpp:110] Creating Layer inception_4c/output
I0823 17:27:16.650975 29136 net.cpp:476] inception_4c/output <- inception_4c/1x1
I0823 17:27:16.650984 29136 net.cpp:476] inception_4c/output <- inception_4c/3x3
I0823 17:27:16.650992 29136 net.cpp:476] inception_4c/output <- inception_4c/5x5
I0823 17:27:16.651000 29136 net.cpp:476] inception_4c/output <- inception_4c/pool_proj
I0823 17:27:16.651010 29136 net.cpp:432] inception_4c/output -> inception_4c/output
I0823 17:27:16.651023 29136 net.cpp:155] Setting up inception_4c/output
I0823 17:27:16.651032 29136 net.cpp:163] Top shape: 50 512 14 14 (5017600)
I0823 17:27:16.651041 29136 layer_factory.hpp:75] Creating layer inception_4c/output_inception_4c/output_0_split
I0823 17:27:16.651049 29136 net.cpp:110] Creating Layer inception_4c/output_inception_4c/output_0_split
I0823 17:27:16.651057 29136 net.cpp:476] inception_4c/output_inception_4c/output_0_split <- inception_4c/output
I0823 17:27:16.651068 29136 net.cpp:432] inception_4c/output_inception_4c/output_0_split -> inception_4c/output_inception_4c/output_0_split_0
I0823 17:27:16.651079 29136 net.cpp:432] inception_4c/output_inception_4c/output_0_split -> inception_4c/output_inception_4c/output_0_split_1
I0823 17:27:16.651090 29136 net.cpp:432] inception_4c/output_inception_4c/output_0_split -> inception_4c/output_inception_4c/output_0_split_2
I0823 17:27:16.651101 29136 net.cpp:432] inception_4c/output_inception_4c/output_0_split -> inception_4c/output_inception_4c/output_0_split_3
I0823 17:27:16.651113 29136 net.cpp:155] Setting up inception_4c/output_inception_4c/output_0_split
I0823 17:27:16.651130 29136 net.cpp:163] Top shape: 50 512 14 14 (5017600)
I0823 17:27:16.651139 29136 net.cpp:163] Top shape: 50 512 14 14 (5017600)
I0823 17:27:16.651145 29136 net.cpp:163] Top shape: 50 512 14 14 (5017600)
I0823 17:27:16.651154 29136 net.cpp:163] Top shape: 50 512 14 14 (5017600)
I0823 17:27:16.651160 29136 layer_factory.hpp:75] Creating layer inception_4d/1x1
I0823 17:27:16.651172 29136 net.cpp:110] Creating Layer inception_4d/1x1
I0823 17:27:16.651180 29136 net.cpp:476] inception_4d/1x1 <- inception_4c/output_inception_4c/output_0_split_0
I0823 17:27:16.651191 29136 net.cpp:432] inception_4d/1x1 -> inception_4d/1x1
I0823 17:27:16.651860 29136 net.cpp:155] Setting up inception_4d/1x1
I0823 17:27:16.651875 29136 net.cpp:163] Top shape: 50 112 14 14 (1097600)
I0823 17:27:16.651885 29136 layer_factory.hpp:75] Creating layer inception_4d/relu_1x1
I0823 17:27:16.651895 29136 net.cpp:110] Creating Layer inception_4d/relu_1x1
I0823 17:27:16.651903 29136 net.cpp:476] inception_4d/relu_1x1 <- inception_4d/1x1
I0823 17:27:16.651913 29136 net.cpp:419] inception_4d/relu_1x1 -> inception_4d/1x1 (in-place)
I0823 17:27:16.656594 29136 net.cpp:155] Setting up inception_4d/relu_1x1
I0823 17:27:16.656613 29136 net.cpp:163] Top shape: 50 112 14 14 (1097600)
I0823 17:27:16.656621 29136 layer_factory.hpp:75] Creating layer inception_4d/3x3_reduce
I0823 17:27:16.656635 29136 net.cpp:110] Creating Layer inception_4d/3x3_reduce
I0823 17:27:16.656642 29136 net.cpp:476] inception_4d/3x3_reduce <- inception_4c/output_inception_4c/output_0_split_1
I0823 17:27:16.656671 29136 net.cpp:432] inception_4d/3x3_reduce -> inception_4d/3x3_reduce
I0823 17:27:16.657414 29136 net.cpp:155] Setting up inception_4d/3x3_reduce
I0823 17:27:16.657429 29136 net.cpp:163] Top shape: 50 144 14 14 (1411200)
I0823 17:27:16.657440 29136 layer_factory.hpp:75] Creating layer inception_4d/relu_3x3_reduce
I0823 17:27:16.657450 29136 net.cpp:110] Creating Layer inception_4d/relu_3x3_reduce
I0823 17:27:16.657459 29136 net.cpp:476] inception_4d/relu_3x3_reduce <- inception_4d/3x3_reduce
I0823 17:27:16.657480 29136 net.cpp:419] inception_4d/relu_3x3_reduce -> inception_4d/3x3_reduce (in-place)
I0823 17:27:16.657557 29136 net.cpp:155] Setting up inception_4d/relu_3x3_reduce
I0823 17:27:16.657567 29136 net.cpp:163] Top shape: 50 144 14 14 (1411200)
I0823 17:27:16.657575 29136 layer_factory.hpp:75] Creating layer inception_4d/3x3
I0823 17:27:16.657588 29136 net.cpp:110] Creating Layer inception_4d/3x3
I0823 17:27:16.657595 29136 net.cpp:476] inception_4d/3x3 <- inception_4d/3x3_reduce
I0823 17:27:16.657605 29136 net.cpp:432] inception_4d/3x3 -> inception_4d/3x3
I0823 17:27:16.660562 29136 net.cpp:155] Setting up inception_4d/3x3
I0823 17:27:16.660590 29136 net.cpp:163] Top shape: 50 288 14 14 (2822400)
I0823 17:27:16.660604 29136 layer_factory.hpp:75] Creating layer inception_4d/relu_3x3
I0823 17:27:16.660615 29136 net.cpp:110] Creating Layer inception_4d/relu_3x3
I0823 17:27:16.660624 29136 net.cpp:476] inception_4d/relu_3x3 <- inception_4d/3x3
I0823 17:27:16.660636 29136 net.cpp:419] inception_4d/relu_3x3 -> inception_4d/3x3 (in-place)
I0823 17:27:16.660699 29136 net.cpp:155] Setting up inception_4d/relu_3x3
I0823 17:27:16.660711 29136 net.cpp:163] Top shape: 50 288 14 14 (2822400)
I0823 17:27:16.660717 29136 layer_factory.hpp:75] Creating layer inception_4d/5x5_reduce
I0823 17:27:16.660730 29136 net.cpp:110] Creating Layer inception_4d/5x5_reduce
I0823 17:27:16.660738 29136 net.cpp:476] inception_4d/5x5_reduce <- inception_4c/output_inception_4c/output_0_split_2
I0823 17:27:16.660749 29136 net.cpp:432] inception_4d/5x5_reduce -> inception_4d/5x5_reduce
I0823 17:27:16.661226 29136 net.cpp:155] Setting up inception_4d/5x5_reduce
I0823 17:27:16.661239 29136 net.cpp:163] Top shape: 50 32 14 14 (313600)
I0823 17:27:16.661249 29136 layer_factory.hpp:75] Creating layer inception_4d/relu_5x5_reduce
I0823 17:27:16.661259 29136 net.cpp:110] Creating Layer inception_4d/relu_5x5_reduce
I0823 17:27:16.661267 29136 net.cpp:476] inception_4d/relu_5x5_reduce <- inception_4d/5x5_reduce
I0823 17:27:16.661278 29136 net.cpp:419] inception_4d/relu_5x5_reduce -> inception_4d/5x5_reduce (in-place)
I0823 17:27:16.661339 29136 net.cpp:155] Setting up inception_4d/relu_5x5_reduce
I0823 17:27:16.661350 29136 net.cpp:163] Top shape: 50 32 14 14 (313600)
I0823 17:27:16.661357 29136 layer_factory.hpp:75] Creating layer inception_4d/5x5
I0823 17:27:16.661367 29136 net.cpp:110] Creating Layer inception_4d/5x5
I0823 17:27:16.661375 29136 net.cpp:476] inception_4d/5x5 <- inception_4d/5x5_reduce
I0823 17:27:16.661388 29136 net.cpp:432] inception_4d/5x5 -> inception_4d/5x5
I0823 17:27:16.662055 29136 net.cpp:155] Setting up inception_4d/5x5
I0823 17:27:16.662070 29136 net.cpp:163] Top shape: 50 64 14 14 (627200)
I0823 17:27:16.662080 29136 layer_factory.hpp:75] Creating layer inception_4d/relu_5x5
I0823 17:27:16.662089 29136 net.cpp:110] Creating Layer inception_4d/relu_5x5
I0823 17:27:16.662097 29136 net.cpp:476] inception_4d/relu_5x5 <- inception_4d/5x5
I0823 17:27:16.662106 29136 net.cpp:419] inception_4d/relu_5x5 -> inception_4d/5x5 (in-place)
I0823 17:27:16.662263 29136 net.cpp:155] Setting up inception_4d/relu_5x5
I0823 17:27:16.662276 29136 net.cpp:163] Top shape: 50 64 14 14 (627200)
I0823 17:27:16.662284 29136 layer_factory.hpp:75] Creating layer inception_4d/pool
I0823 17:27:16.662293 29136 layer_factory.cpp:60] CUDNN does not support padding or multiple tops. Using Caffe's own pooling layer.
I0823 17:27:16.662302 29136 net.cpp:110] Creating Layer inception_4d/pool
I0823 17:27:16.662353 29136 net.cpp:476] inception_4d/pool <- inception_4c/output_inception_4c/output_0_split_3
I0823 17:27:16.662366 29136 net.cpp:432] inception_4d/pool -> inception_4d/pool
I0823 17:27:16.662381 29136 net.cpp:155] Setting up inception_4d/pool
I0823 17:27:16.662391 29136 net.cpp:163] Top shape: 50 512 14 14 (5017600)
I0823 17:27:16.662399 29136 layer_factory.hpp:75] Creating layer inception_4d/pool_proj
I0823 17:27:16.662410 29136 net.cpp:110] Creating Layer inception_4d/pool_proj
I0823 17:27:16.662418 29136 net.cpp:476] inception_4d/pool_proj <- inception_4d/pool
I0823 17:27:16.662428 29136 net.cpp:432] inception_4d/pool_proj -> inception_4d/pool_proj
I0823 17:27:16.662955 29136 net.cpp:155] Setting up inception_4d/pool_proj
I0823 17:27:16.662969 29136 net.cpp:163] Top shape: 50 64 14 14 (627200)
I0823 17:27:16.662979 29136 layer_factory.hpp:75] Creating layer inception_4d/relu_pool_proj
I0823 17:27:16.662992 29136 net.cpp:110] Creating Layer inception_4d/relu_pool_proj
I0823 17:27:16.662999 29136 net.cpp:476] inception_4d/relu_pool_proj <- inception_4d/pool_proj
I0823 17:27:16.663007 29136 net.cpp:419] inception_4d/relu_pool_proj -> inception_4d/pool_proj (in-place)
I0823 17:27:16.663074 29136 net.cpp:155] Setting up inception_4d/relu_pool_proj
I0823 17:27:16.663084 29136 net.cpp:163] Top shape: 50 64 14 14 (627200)
I0823 17:27:16.663091 29136 layer_factory.hpp:75] Creating layer inception_4d/output
I0823 17:27:16.663100 29136 net.cpp:110] Creating Layer inception_4d/output
I0823 17:27:16.663107 29136 net.cpp:476] inception_4d/output <- inception_4d/1x1
I0823 17:27:16.663125 29136 net.cpp:476] inception_4d/output <- inception_4d/3x3
I0823 17:27:16.663135 29136 net.cpp:476] inception_4d/output <- inception_4d/5x5
I0823 17:27:16.663142 29136 net.cpp:476] inception_4d/output <- inception_4d/pool_proj
I0823 17:27:16.663152 29136 net.cpp:432] inception_4d/output -> inception_4d/output
I0823 17:27:16.663164 29136 net.cpp:155] Setting up inception_4d/output
I0823 17:27:16.663173 29136 net.cpp:163] Top shape: 50 528 14 14 (5174400)
I0823 17:27:16.663180 29136 layer_factory.hpp:75] Creating layer inception_4d/output_inception_4d/output_0_split
I0823 17:27:16.663189 29136 net.cpp:110] Creating Layer inception_4d/output_inception_4d/output_0_split
I0823 17:27:16.663197 29136 net.cpp:476] inception_4d/output_inception_4d/output_0_split <- inception_4d/output
I0823 17:27:16.663206 29136 net.cpp:432] inception_4d/output_inception_4d/output_0_split -> inception_4d/output_inception_4d/output_0_split_0
I0823 17:27:16.663218 29136 net.cpp:432] inception_4d/output_inception_4d/output_0_split -> inception_4d/output_inception_4d/output_0_split_1
I0823 17:27:16.663228 29136 net.cpp:432] inception_4d/output_inception_4d/output_0_split -> inception_4d/output_inception_4d/output_0_split_2
I0823 17:27:16.663239 29136 net.cpp:432] inception_4d/output_inception_4d/output_0_split -> inception_4d/output_inception_4d/output_0_split_3
I0823 17:27:16.663247 29136 net.cpp:432] inception_4d/output_inception_4d/output_0_split -> inception_4d/output_inception_4d/output_0_split_4
I0823 17:27:16.663259 29136 net.cpp:155] Setting up inception_4d/output_inception_4d/output_0_split
I0823 17:27:16.663266 29136 net.cpp:163] Top shape: 50 528 14 14 (5174400)
I0823 17:27:16.663275 29136 net.cpp:163] Top shape: 50 528 14 14 (5174400)
I0823 17:27:16.663281 29136 net.cpp:163] Top shape: 50 528 14 14 (5174400)
I0823 17:27:16.663288 29136 net.cpp:163] Top shape: 50 528 14 14 (5174400)
I0823 17:27:16.663296 29136 net.cpp:163] Top shape: 50 528 14 14 (5174400)
I0823 17:27:16.663303 29136 layer_factory.hpp:75] Creating layer loss2/ave_pool
I0823 17:27:16.663313 29136 net.cpp:110] Creating Layer loss2/ave_pool
I0823 17:27:16.663321 29136 net.cpp:476] loss2/ave_pool <- inception_4d/output_inception_4d/output_0_split_0
I0823 17:27:16.663331 29136 net.cpp:432] loss2/ave_pool -> loss2/ave_pool
I0823 17:27:16.663390 29136 net.cpp:155] Setting up loss2/ave_pool
I0823 17:27:16.663401 29136 net.cpp:163] Top shape: 50 528 4 4 (422400)
I0823 17:27:16.663419 29136 layer_factory.hpp:75] Creating layer loss2/conv
I0823 17:27:16.663430 29136 net.cpp:110] Creating Layer loss2/conv
I0823 17:27:16.663437 29136 net.cpp:476] loss2/conv <- loss2/ave_pool
I0823 17:27:16.663446 29136 net.cpp:432] loss2/conv -> loss2/conv
I0823 17:27:16.664633 29136 net.cpp:155] Setting up loss2/conv
I0823 17:27:16.664651 29136 net.cpp:163] Top shape: 50 128 4 4 (102400)
I0823 17:27:16.664662 29136 layer_factory.hpp:75] Creating layer loss2/relu_conv
I0823 17:27:16.664677 29136 net.cpp:110] Creating Layer loss2/relu_conv
I0823 17:27:16.664685 29136 net.cpp:476] loss2/relu_conv <- loss2/conv
I0823 17:27:16.664693 29136 net.cpp:419] loss2/relu_conv -> loss2/conv (in-place)
I0823 17:27:16.664754 29136 net.cpp:155] Setting up loss2/relu_conv
I0823 17:27:16.664765 29136 net.cpp:163] Top shape: 50 128 4 4 (102400)
I0823 17:27:16.664772 29136 layer_factory.hpp:75] Creating layer loss2/fc
I0823 17:27:16.664785 29136 net.cpp:110] Creating Layer loss2/fc
I0823 17:27:16.664793 29136 net.cpp:476] loss2/fc <- loss2/conv
I0823 17:27:16.664801 29136 net.cpp:432] loss2/fc -> loss2/fc
I0823 17:27:16.737478 29136 net.cpp:155] Setting up loss2/fc
I0823 17:27:16.737534 29136 net.cpp:163] Top shape: 50 1024 (51200)
I0823 17:27:16.737560 29136 layer_factory.hpp:75] Creating layer loss2/relu_fc
I0823 17:27:16.737581 29136 net.cpp:110] Creating Layer loss2/relu_fc
I0823 17:27:16.737596 29136 net.cpp:476] loss2/relu_fc <- loss2/fc
I0823 17:27:16.737612 29136 net.cpp:419] loss2/relu_fc -> loss2/fc (in-place)
I0823 17:27:16.737947 29136 net.cpp:155] Setting up loss2/relu_fc
I0823 17:27:16.737961 29136 net.cpp:163] Top shape: 50 1024 (51200)
I0823 17:27:16.737968 29136 layer_factory.hpp:75] Creating layer loss2/drop_fc
I0823 17:27:16.737979 29136 net.cpp:110] Creating Layer loss2/drop_fc
I0823 17:27:16.737987 29136 net.cpp:476] loss2/drop_fc <- loss2/fc
I0823 17:27:16.737995 29136 net.cpp:419] loss2/drop_fc -> loss2/fc (in-place)
I0823 17:27:16.738006 29136 net.cpp:155] Setting up loss2/drop_fc
I0823 17:27:16.738015 29136 net.cpp:163] Top shape: 50 1024 (51200)
I0823 17:27:16.738023 29136 layer_factory.hpp:75] Creating layer loss2/classifier
I0823 17:27:16.738040 29136 net.cpp:110] Creating Layer loss2/classifier
I0823 17:27:16.738049 29136 net.cpp:476] loss2/classifier <- loss2/fc
I0823 17:27:16.738059 29136 net.cpp:432] loss2/classifier -> loss2/classifier
I0823 17:27:16.744750 29136 net.cpp:155] Setting up loss2/classifier
I0823 17:27:16.744786 29136 net.cpp:163] Top shape: 50 1000 (50000)
I0823 17:27:16.744808 29136 layer_factory.hpp:75] Creating layer loss2/classifier_loss2/classifier_0_split
I0823 17:27:16.744829 29136 net.cpp:110] Creating Layer loss2/classifier_loss2/classifier_0_split
I0823 17:27:16.744845 29136 net.cpp:476] loss2/classifier_loss2/classifier_0_split <- loss2/classifier
I0823 17:27:16.744866 29136 net.cpp:432] loss2/classifier_loss2/classifier_0_split -> loss2/classifier_loss2/classifier_0_split_0
I0823 17:27:16.744889 29136 net.cpp:432] loss2/classifier_loss2/classifier_0_split -> loss2/classifier_loss2/classifier_0_split_1
I0823 17:27:16.744909 29136 net.cpp:432] loss2/classifier_loss2/classifier_0_split -> loss2/classifier_loss2/classifier_0_split_2
I0823 17:27:16.744927 29136 net.cpp:155] Setting up loss2/classifier_loss2/classifier_0_split
I0823 17:27:16.744943 29136 net.cpp:163] Top shape: 50 1000 (50000)
I0823 17:27:16.744957 29136 net.cpp:163] Top shape: 50 1000 (50000)
I0823 17:27:16.744987 29136 net.cpp:163] Top shape: 50 1000 (50000)
I0823 17:27:16.744998 29136 layer_factory.hpp:75] Creating layer loss2/loss
I0823 17:27:16.745014 29136 net.cpp:110] Creating Layer loss2/loss
I0823 17:27:16.745038 29136 net.cpp:476] loss2/loss <- loss2/classifier_loss2/classifier_0_split_0
I0823 17:27:16.745062 29136 net.cpp:476] loss2/loss <- label_data_1_split_3
I0823 17:27:16.745079 29136 net.cpp:432] loss2/loss -> loss2/loss1
I0823 17:27:16.745112 29136 layer_factory.hpp:75] Creating layer loss2/loss
…
I0823 17:27:16.745621 29136 net.cpp:432] loss2/top-5 -> loss2/top-5
I0823 17:27:16.745640 29136 net.cpp:155] Setting up loss2/top-5
I0823 17:27:16.745656 29136 net.cpp:163] Top shape: (1)
I0823 17:27:16.745669 29136 layer_factory.hpp:75] Creating layer inception_4e/1x1
I0823 17:27:16.745689 29136 net.cpp:110] Creating Layer inception_4e/1x1
I0823 17:27:16.745699 29136 net.cpp:476] inception_4e/1x1 <- inception_4d/output_inception_4d/output_0_split_1
I0823 17:27:16.745709 29136 net.cpp:432] inception_4e/1x1 -> inception_4e/1x1
I0823 17:27:16.746886 29136 net.cpp:155] Setting up inception_4e/1x1
I0823 17:27:16.746902 29136 net.cpp:163] Top shape: 50 256 14 14 (2508800)
I0823 17:27:16.746913 29136 layer_factory.hpp:75] Creating layer inception_4e/relu_1x1
I0823 17:27:16.746923 29136 net.cpp:110] Creating Layer inception_4e/relu_1x1
I0823 17:27:16.746932 29136 net.cpp:476] inception_4e/relu_1x1 <- inception_4e/1x1
I0823 17:27:16.746940 29136 net.cpp:419] inception_4e/relu_1x1 -> inception_4e/1x1 (in-place)
I0823 17:27:16.747006 29136 net.cpp:155] Setting up inception_4e/relu_1x1
I0823 17:27:16.747017 29136 net.cpp:163] Top shape: 50 256 14 14 (2508800)
I0823 17:27:16.747025 29136 layer_factory.hpp:75] Creating layer inception_4e/3x3_reduce
I0823 17:27:16.747050 29136 net.cpp:110] Creating Layer inception_4e/3x3_reduce
I0823 17:27:16.747057 29136 net.cpp:476] inception_4e/3x3_reduce <- inception_4d/output_inception_4d/output_0_split_2
I0823 17:27:16.747068 29136 net.cpp:432] inception_4e/3x3_reduce -> inception_4e/3x3_reduce
I0823 17:27:16.748272 29136 net.cpp:155] Setting up inception_4e/3x3_reduce
I0823 17:27:16.748289 29136 net.cpp:163] Top shape: 50 160 14 14 (1568000)
I0823 17:27:16.748301 29136 layer_factory.hpp:75] Creating layer inception_4e/relu_3x3_reduce
I0823 17:27:16.748314 29136 net.cpp:110] Creating Layer inception_4e/relu_3x3_reduce
I0823 17:27:16.748322 29136 net.cpp:476] inception_4e/relu_3x3_reduce <- inception_4e/3x3_reduce
I0823 17:27:16.748332 29136 net.cpp:419] inception_4e/relu_3x3_reduce -> inception_4e/3x3_reduce (in-place)
I0823 17:27:16.748394 29136 net.cpp:155] Setting up inception_4e/relu_3x3_reduce
I0823 17:27:16.748405 29136 net.cpp:163] Top shape: 50 160 14 14 (1568000)
I0823 17:27:16.748414 29136 layer_factory.hpp:75] Creating layer inception_4e/3x3
I0823 17:27:16.748424 29136 net.cpp:110] Creating Layer inception_4e/3x3
I0823 17:27:16.748431 29136 net.cpp:476] inception_4e/3x3 <- inception_4e/3x3_reduce
I0823 17:27:16.748442 29136 net.cpp:432] inception_4e/3x3 -> inception_4e/3x3
I0823 17:27:16.751768 29136 net.cpp:155] Setting up inception_4e/3x3
I0823 17:27:16.751787 29136 net.cpp:163] Top shape: 50 320 14 14 (3136000)
I0823 17:27:16.751798 29136 layer_factory.hpp:75] Creating layer inception_4e/relu_3x3
I0823 17:27:16.751808 29136 net.cpp:110] Creating Layer inception_4e/relu_3x3
I0823 17:27:16.751816 29136 net.cpp:476] inception_4e/relu_3x3 <- inception_4e/3x3
I0823 17:27:16.751828 29136 net.cpp:419] inception_4e/relu_3x3 -> inception_4e/3x3 (in-place)
I0823 17:27:16.752044 29136 net.cpp:155] Setting up inception_4e/relu_3x3
I0823 17:27:16.752058 29136 net.cpp:163] Top shape: 50 320 14 14 (3136000)
I0823 17:27:16.752087 29136 layer_factory.hpp:75] Creating layer inception_4e/5x5_reduce
I0823 17:27:16.752099 29136 net.cpp:110] Creating Layer inception_4e/5x5_reduce
I0823 17:27:16.752107 29136 net.cpp:476] inception_4e/5x5_reduce <- inception_4d/output_inception_4d/output_0_split_3
I0823 17:27:16.752118 29136 net.cpp:432] inception_4e/5x5_reduce -> inception_4e/5x5_reduce
I0823 17:27:16.752538 29136 net.cpp:155] Setting up inception_4e/5x5_reduce
I0823 17:27:16.752552 29136 net.cpp:163] Top shape: 50 32 14 14 (313600)
I0823 17:27:16.752562 29136 layer_factory.hpp:75] Creating layer inception_4e/relu_5x5_reduce
I0823 17:27:16.752571 29136 net.cpp:110] Creating Layer inception_4e/relu_5x5_reduce
I0823 17:27:16.752579 29136 net.cpp:476] inception_4e/relu_5x5_reduce <- inception_4e/5x5_reduce
I0823 17:27:16.752588 29136 net.cpp:419] inception_4e/relu_5x5_reduce -> inception_4e/5x5_reduce (in-place)
I0823 17:27:16.752645 29136 net.cpp:155] Setting up inception_4e/relu_5x5_reduce
I0823 17:27:16.752656 29136 net.cpp:163] Top shape: 50 32 14 14 (313600)
I0823 17:27:16.752665 29136 layer_factory.hpp:75] Creating layer inception_4e/5x5
I0823 17:27:16.752676 29136 net.cpp:110] Creating Layer inception_4e/5x5
I0823 17:27:16.752682 29136 net.cpp:476] inception_4e/5x5 <- inception_4e/5x5_reduce
I0823 17:27:16.752693 29136 net.cpp:432] inception_4e/5x5 -> inception_4e/5x5
I0823 17:27:16.753573 29136 net.cpp:155] Setting up inception_4e/5x5
I0823 17:27:16.753587 29136 net.cpp:163] Top shape: 50 128 14 14 (1254400)
I0823 17:27:16.753598 29136 layer_factory.hpp:75] Creating layer inception_4e/relu_5x5
I0823 17:27:16.753607 29136 net.cpp:110] Creating Layer inception_4e/relu_5x5
I0823 17:27:16.753614 29136 net.cpp:476] inception_4e/relu_5x5 <- inception_4e/5x5
I0823 17:27:16.753623 29136 net.cpp:419] inception_4e/relu_5x5 -> inception_4e/5x5 (in-place)
I0823 17:27:16.753681 29136 net.cpp:155] Setting up inception_4e/relu_5x5
I0823 17:27:16.753692 29136 net.cpp:163] Top shape: 50 128 14 14 (1254400)
I0823 17:27:16.753700 29136 layer_factory.hpp:75] Creating layer inception_4e/pool
I0823 17:27:16.753707 29136 layer_factory.cpp:60] CUDNN does not support padding or multiple tops. Using Caffe's own pooling layer.
I0823 17:27:16.753716 29136 net.cpp:110] Creating Layer inception_4e/pool
I0823 17:27:16.753723 29136 net.cpp:476] inception_4e/pool <- inception_4d/output_inception_4d/output_0_split_4
I0823 17:27:16.753732 29136 net.cpp:432] inception_4e/pool -> inception_4e/pool
I0823 17:27:16.753744 29136 net.cpp:155] Setting up inception_4e/pool
I0823 17:27:16.753753 29136 net.cpp:163] Top shape: 50 528 14 14 (5174400)
I0823 17:27:16.753761 29136 layer_factory.hpp:75] Creating layer inception_4e/pool_proj
I0823 17:27:16.753777 29136 net.cpp:110] Creating Layer inception_4e/pool_proj
I0823 17:27:16.753783 29136 net.cpp:476] inception_4e/pool_proj <- inception_4e/pool
I0823 17:27:16.753794 29136 net.cpp:432] inception_4e/pool_proj -> inception_4e/pool_proj
I0823 17:27:16.754484 29136 net.cpp:155] Setting up inception_4e/pool_proj
I0823 17:27:16.754498 29136 net.cpp:163] Top shape: 50 128 14 14 (1254400)
I0823 17:27:16.754508 29136 layer_factory.hpp:75] Creating layer inception_4e/relu_pool_proj
I0823 17:27:16.754518 29136 net.cpp:110] Creating Layer inception_4e/relu_pool_proj
I0823 17:27:16.754524 29136 net.cpp:476] inception_4e/relu_pool_proj <- inception_4e/pool_proj
I0823 17:27:16.754535 29136 net.cpp:419] inception_4e/relu_pool_proj -> inception_4e/pool_proj (in-place)
I0823 17:27:16.754705 29136 net.cpp:155] Setting up inception_4e/relu_pool_proj
I0823 17:27:16.754717 29136 net.cpp:163] Top shape: 50 128 14 14 (1254400)
I0823 17:27:16.754725 29136 layer_factory.hpp:75] Creating layer inception_4e/output
I0823 17:27:16.754735 29136 net.cpp:110] Creating Layer inception_4e/output
I0823 17:27:16.754742 29136 net.cpp:476] inception_4e/output <- inception_4e/1x1
I0823 17:27:16.754752 29136 net.cpp:476] inception_4e/output <- inception_4e/3x3
I0823 17:27:16.754761 29136 net.cpp:476] inception_4e/output <- inception_4e/5x5
I0823 17:27:16.754778 29136 net.cpp:476] inception_4e/output <- inception_4e/pool_proj
I0823 17:27:16.754787 29136 net.cpp:432] inception_4e/output -> inception_4e/output
I0823 17:27:16.754799 29136 net.cpp:155] Setting up inception_4e/output
I0823 17:27:16.754807 29136 net.cpp:163] Top shape: 50 832 14 14 (8153600)
I0823 17:27:16.754814 29136 layer_factory.hpp:75] Creating layer pool4/3x3_s2
I0823 17:27:16.754825 29136 net.cpp:110] Creating Layer pool4/3x3_s2
I0823 17:27:16.754833 29136 net.cpp:476] pool4/3x3_s2 <- inception_4e/output
I0823 17:27:16.754842 29136 net.cpp:432] pool4/3x3_s2 -> pool4/3x3_s2
I0823 17:27:16.754902 29136 net.cpp:155] Setting up pool4/3x3_s2
I0823 17:27:16.754914 29136 net.cpp:163] Top shape: 50 832 7 7 (2038400)
I0823 17:27:16.754920 29136 layer_factory.hpp:75] Creating layer pool4/3x3_s2_pool4/3x3_s2_0_split
I0823 17:27:16.754930 29136 net.cpp:110] Creating Layer pool4/3x3_s2_pool4/3x3_s2_0_split
I0823 17:27:16.754937 29136 net.cpp:476] pool4/3x3_s2_pool4/3x3_s2_0_split <- pool4/3x3_s2
I0823 17:27:16.754945 29136 net.cpp:432] pool4/3x3_s2_pool4/3x3_s2_0_split -> pool4/3x3_s2_pool4/3x3_s2_0_split_0
I0823 17:27:16.754956 29136 net.cpp:432] pool4/3x3_s2_pool4/3x3_s2_0_split -> pool4/3x3_s2_pool4/3x3_s2_0_split_1
I0823 17:27:16.754966 29136 net.cpp:432] pool4/3x3_s2_pool4/3x3_s2_0_split -> pool4/3x3_s2_pool4/3x3_s2_0_split_2
I0823 17:27:16.754987 29136 net.cpp:432] pool4/3x3_s2_pool4/3x3_s2_0_split -> pool4/3x3_s2_pool4/3x3_s2_0_split_3
I0823 17:27:16.754998 29136 net.cpp:155] Setting up pool4/3x3_s2_pool4/3x3_s2_0_split
I0823 17:27:16.755007 29136 net.cpp:163] Top shape: 50 832 7 7 (2038400)
I0823 17:27:16.755014 29136 net.cpp:163] Top shape: 50 832 7 7 (2038400)
I0823 17:27:16.755024 29136 net.cpp:163] Top shape: 50 832 7 7 (2038400)
I0823 17:27:16.755033 29136 net.cpp:163] Top shape: 50 832 7 7 (2038400)
I0823 17:27:16.755039 29136 layer_factory.hpp:75] Creating layer inception_5a/1x1
I0823 17:27:16.755051 29136 net.cpp:110] Creating Layer inception_5a/1x1
I0823 17:27:16.755059 29136 net.cpp:476] inception_5a/1x1 <- pool4/3x3_s2_pool4/3x3_s2_0_split_0
I0823 17:27:16.755069 29136 net.cpp:432] inception_5a/1x1 -> inception_5a/1x1
I0823 17:27:16.756882 29136 net.cpp:155] Setting up inception_5a/1x1
I0823 17:27:16.756897 29136 net.cpp:163] Top shape: 50 256 7 7 (627200)
I0823 17:27:16.756908 29136 layer_factory.hpp:75] Creating layer inception_5a/relu_1x1
I0823 17:27:16.756925 29136 net.cpp:110] Creating Layer inception_5a/relu_1x1
I0823 17:27:16.756933 29136 net.cpp:476] inception_5a/relu_1x1 <- inception_5a/1x1
I0823 17:27:16.756943 29136 net.cpp:419] inception_5a/relu_1x1 -> inception_5a/1x1 (in-place)
I0823 17:27:16.757025 29136 net.cpp:155] Setting up inception_5a/relu_1x1
I0823 17:27:16.757037 29136 net.cpp:163] Top shape: 50 256 7 7 (627200)
I0823 17:27:16.757045 29136 layer_factory.hpp:75] Creating layer inception_5a/3x3_reduce
I0823 17:27:16.757056 29136 net.cpp:110] Creating Layer inception_5a/3x3_reduce
I0823 17:27:16.757064 29136 net.cpp:476] inception_5a/3x3_reduce <- pool4/3x3_s2_pool4/3x3_s2_0_split_1
I0823 17:27:16.757083 29136 net.cpp:432] inception_5a/3x3_reduce -> inception_5a/3x3_reduce
I0823 17:27:16.758450 29136 net.cpp:155] Setting up inception_5a/3x3_reduce
I0823 17:27:16.758466 29136 net.cpp:163] Top shape: 50 160 7 7 (392000)
I0823 17:27:16.758476 29136 layer_factory.hpp:75] Creating layer inception_5a/relu_3x3_reduce
I0823 17:27:16.758484 29136 net.cpp:110] Creating Layer inception_5a/relu_3x3_reduce
I0823 17:27:16.758492 29136 net.cpp:476] inception_5a/relu_3x3_reduce <- inception_5a/3x3_reduce
I0823 17:27:16.758501 29136 net.cpp:419] inception_5a/relu_3x3_reduce -> inception_5a/3x3_reduce (in-place)
I0823 17:27:16.758560 29136 net.cpp:155] Setting up inception_5a/relu_3x3_reduce
I0823 17:27:16.758570 29136 net.cpp:163] Top shape: 50 160 7 7 (392000)
I0823 17:27:16.758579 29136 layer_factory.hpp:75] Creating layer inception_5a/3x3
I0823 17:27:16.758589 29136 net.cpp:110] Creating Layer inception_5a/3x3
I0823 17:27:16.758596 29136 net.cpp:476] inception_5a/3x3 <- inception_5a/3x3_reduce
I0823 17:27:16.758620 29136 net.cpp:432] inception_5a/3x3 -> inception_5a/3x3
I0823 17:27:16.761873 29136 net.cpp:155] Setting up inception_5a/3x3
I0823 17:27:16.761889 29136 net.cpp:163] Top shape: 50 320 7 7 (784000)
I0823 17:27:16.761900 29136 layer_factory.hpp:75] Creating layer inception_5a/relu_3x3
I0823 17:27:16.761910 29136 net.cpp:110] Creating Layer inception_5a/relu_3x3
I0823 17:27:16.761919 29136 net.cpp:476] inception_5a/relu_3x3 <- inception_5a/3x3
I0823 17:27:16.761926 29136 net.cpp:419] inception_5a/relu_3x3 -> inception_5a/3x3 (in-place)
I0823 17:27:16.762112 29136 net.cpp:155] Setting up inception_5a/relu_3x3
I0823 17:27:16.762133 29136 net.cpp:163] Top shape: 50 320 7 7 (784000)
I0823 17:27:16.762141 29136 layer_factory.hpp:75] Creating layer inception_5a/5x5_reduce
I0823 17:27:16.762152 29136 net.cpp:110] Creating Layer inception_5a/5x5_reduce
I0823 17:27:16.762161 29136 net.cpp:476] inception_5a/5x5_reduce <- pool4/3x3_s2_pool4/3x3_s2_0_split_2
I0823 17:27:16.762171 29136 net.cpp:432] inception_5a/5x5_reduce -> inception_5a/5x5_reduce
I0823 17:27:16.762692 29136 net.cpp:155] Setting up inception_5a/5x5_reduce
I0823 17:27:16.762706 29136 net.cpp:163] Top shape: 50 32 7 7 (78400)
I0823 17:27:16.762715 29136 layer_factory.hpp:75] Creating layer inception_5a/relu_5x5_reduce
I0823 17:27:16.762724 29136 net.cpp:110] Creating Layer inception_5a/relu_5x5_reduce
I0823 17:27:16.762732 29136 net.cpp:476] inception_5a/relu_5x5_reduce <- inception_5a/5x5_reduce
I0823 17:27:16.762742 29136 net.cpp:419] inception_5a/relu_5x5_reduce -> inception_5a/5x5_reduce (in-place)
I0823 17:27:16.762823 29136 net.cpp:155] Setting up inception_5a/relu_5x5_reduce
I0823 17:27:16.762835 29136 net.cpp:163] Top shape: 50 32 7 7 (78400)
I0823 17:27:16.762843 29136 layer_factory.hpp:75] Creating layer inception_5a/5x5
I0823 17:27:16.762853 29136 net.cpp:110] Creating Layer inception_5a/5x5
I0823 17:27:16.762861 29136 net.cpp:476] inception_5a/5x5 <- inception_5a/5x5_reduce
I0823 17:27:16.762871 29136 net.cpp:432] inception_5a/5x5 -> inception_5a/5x5
I0823 17:27:16.763721 29136 net.cpp:155] Setting up inception_5a/5x5
I0823 17:27:16.763734 29136 net.cpp:163] Top shape: 50 128 7 7 (313600)
I0823 17:27:16.763744 29136 layer_factory.hpp:75] Creating layer inception_5a/relu_5x5
I0823 17:27:16.763756 29136 net.cpp:110] Creating Layer inception_5a/relu_5x5
I0823 17:27:16.763762 29136 net.cpp:476] inception_5a/relu_5x5 <- inception_5a/5x5
I0823 17:27:16.763772 29136 net.cpp:419] inception_5a/relu_5x5 -> inception_5a/5x5 (in-place)
I0823 17:27:16.763830 29136 net.cpp:155] Setting up inception_5a/relu_5x5
I0823 17:27:16.763841 29136 net.cpp:163] Top shape: 50 128 7 7 (313600)
I0823 17:27:16.763849 29136 layer_factory.hpp:75] Creating layer inception_5a/pool
I0823 17:27:16.763856 29136 layer_factory.cpp:60] CUDNN does not support padding or multiple tops. Using Caffe's own pooling layer.
I0823 17:27:16.763866 29136 net.cpp:110] Creating Layer inception_5a/pool
I0823 17:27:16.763874 29136 net.cpp:476] inception_5a/pool <- pool4/3x3_s2_pool4/3x3_s2_0_split_3
I0823 17:27:16.763882 29136 net.cpp:432] inception_5a/pool -> inception_5a/pool
I0823 17:27:16.763895 29136 net.cpp:155] Setting up inception_5a/pool
I0823 17:27:16.763902 29136 net.cpp:163] Top shape: 50 832 7 7 (2038400)
I0823 17:27:16.763909 29136 layer_factory.hpp:75] Creating layer inception_5a/pool_proj
I0823 17:27:16.763921 29136 net.cpp:110] Creating Layer inception_5a/pool_proj
I0823 17:27:16.763928 29136 net.cpp:476] inception_5a/pool_proj <- inception_5a/pool
I0823 17:27:16.763938 29136 net.cpp:432] inception_5a/pool_proj -> inception_5a/pool_proj
I0823 17:27:16.765457 29136 net.cpp:155] Setting up inception_5a/pool_proj
I0823 17:27:16.765478 29136 net.cpp:163] Top shape: 50 128 7 7 (313600)
I0823 17:27:16.765496 29136 layer_factory.hpp:75] Creating layer inception_5a/relu_pool_proj
I0823 17:27:16.765511 29136 net.cpp:110] Creating Layer inception_5a/relu_pool_proj
I0823 17:27:16.765523 29136 net.cpp:476] inception_5a/relu_pool_proj <- inception_5a/pool_proj
I0823 17:27:16.765549 29136 net.cpp:419] inception_5a/relu_pool_proj -> inception_5a/pool_proj (in-place)
I0823 17:27:16.765638 29136 net.cpp:155] Setting up inception_5a/relu_pool_proj
I0823 17:27:16.765655 29136 net.cpp:163] Top shape: 50 128 7 7 (313600)
I0823 17:27:16.765666 29136 layer_factory.hpp:75] Creating layer inception_5a/output
I0823 17:27:16.765691 29136 net.cpp:110] Creating Layer inception_5a/output
I0823 17:27:16.765703 29136 net.cpp:476] inception_5a/output <- inception_5a/1x1
I0823 17:27:16.765715 29136 net.cpp:476] inception_5a/output <- inception_5a/3x3
I0823 17:27:16.765727 29136 net.cpp:476] inception_5a/output <- inception_5a/5x5
I0823 17:27:16.765739 29136 net.cpp:476] inception_5a/output <- inception_5a/pool_proj
I0823 17:27:16.765754 29136 net.cpp:432] inception_5a/output -> inception_5a/output
I0823 17:27:16.765774 29136 net.cpp:155] Setting up inception_5a/output
I0823 17:27:16.765786 29136 net.cpp:163] Top shape: 50 832 7 7 (2038400)
I0823 17:27:16.765797 29136 layer_factory.hpp:75] Creating layer inception_5a/output_inception_5a/output_0_split
I0823 17:27:16.765827 29136 net.cpp:110] Creating Layer inception_5a/output_inception_5a/output_0_split
I0823 17:27:16.765840 29136 net.cpp:476] inception_5a/output_inception_5a/output_0_split <- inception_5a/output
I0823 17:27:16.765854 29136 net.cpp:432] inception_5a/output_inception_5a/output_0_split -> inception_5a/output_inception_5a/output_0_split_0
I0823 17:27:16.765871 29136 net.cpp:432] inception_5a/output_inception_5a/output_0_split -> inception_5a/output_inception_5a/output_0_split_1
I0823 17:27:16.765887 29136 net.cpp:432] inception_5a/output_inception_5a/output_0_split -> inception_5a/output_inception_5a/output_0_split_2
I0823 17:27:16.765904 29136 net.cpp:432] inception_5a/output_inception_5a/output_0_split -> inception_5a/output_inception_5a/output_0_split_3
I0823 17:27:16.765920 29136 net.cpp:155] Setting up inception_5a/output_inception_5a/output_0_split
I0823 17:27:16.765933 29136 net.cpp:163] Top shape: 50 832 7 7 (2038400)
I0823 17:27:16.765946 29136 net.cpp:163] Top shape: 50 832 7 7 (2038400)
I0823 17:27:16.765959 29136 net.cpp:163] Top shape: 50 832 7 7 (2038400)
I0823 17:27:16.765970 29136 net.cpp:163] Top shape: 50 832 7 7 (2038400)
I0823 17:27:16.765981 29136 layer_factory.hpp:75] Creating layer inception_5b/1x1
I0823 17:27:16.766000 29136 net.cpp:110] Creating Layer inception_5b/1x1
I0823 17:27:16.766012 29136 net.cpp:476] inception_5b/1x1 <- inception_5a/output_inception_5a/output_0_split_0
I0823 17:27:16.766031 29136 net.cpp:432] inception_5b/1x1 -> inception_5b/1x1
I0823 17:27:16.769136 29136 net.cpp:155] Setting up inception_5b/1x1
I0823 17:27:16.769158 29136 net.cpp:163] Top shape: 50 384 7 7 (940800)
I0823 17:27:16.769171 29136 layer_factory.hpp:75] Creating layer inception_5b/relu_1x1
I0823 17:27:16.769183 29136 net.cpp:110] Creating Layer inception_5b/relu_1x1
I0823 17:27:16.769192 29136 net.cpp:476] inception_5b/relu_1x1 <- inception_5b/1x1
I0823 17:27:16.769202 29136 net.cpp:419] inception_5b/relu_1x1 -> inception_5b/1x1 (in-place)
I0823 17:27:16.769372 29136 net.cpp:155] Setting up inception_5b/relu_1x1
I0823 17:27:16.769387 29136 net.cpp:163] Top shape: 50 384 7 7 (940800)
I0823 17:27:16.769395 29136 layer_factory.hpp:75] Creating layer inception_5b/3x3_reduce
I0823 17:27:16.769407 29136 net.cpp:110] Creating Layer inception_5b/3x3_reduce
I0823 17:27:16.769414 29136 net.cpp:476] inception_5b/3x3_reduce <- inception_5a/output_inception_5a/output_0_split_1
I0823 17:27:16.769428 29136 net.cpp:432] inception_5b/3x3_reduce -> inception_5b/3x3_reduce
I0823 17:27:16.771090 29136 net.cpp:155] Setting up inception_5b/3x3_reduce
I0823 17:27:16.771106 29136 net.cpp:163] Top shape: 50 192 7 7 (470400)
I0823 17:27:16.771126 29136 layer_factory.hpp:75] Creating layer inception_5b/relu_3x3_reduce
I0823 17:27:16.771136 29136 net.cpp:110] Creating Layer inception_5b/relu_3x3_reduce
I0823 17:27:16.771145 29136 net.cpp:476] inception_5b/relu_3x3_reduce <- inception_5b/3x3_reduce
I0823 17:27:16.771157 29136 net.cpp:419] inception_5b/relu_3x3_reduce -> inception_5b/3x3_reduce (in-place)
I0823 17:27:16.771240 29136 net.cpp:155] Setting up inception_5b/relu_3x3_reduce
I0823 17:27:16.771252 29136 net.cpp:163] Top shape: 50 192 7 7 (470400)
I0823 17:27:16.771260 29136 layer_factory.hpp:75] Creating layer inception_5b/3x3
I0823 17:27:16.771292 29136 net.cpp:110] Creating Layer inception_5b/3x3
I0823 17:27:16.771309 29136 net.cpp:476] inception_5b/3x3 <- inception_5b/3x3_reduce
I0823 17:27:16.771322 29136 net.cpp:432] inception_5b/3x3 -> inception_5b/3x3
I0823 17:27:16.776114 29136 net.cpp:155] Setting up inception_5b/3x3
I0823 17:27:16.776139 29136 net.cpp:163] Top shape: 50 384 7 7 (940800)
I0823 17:27:16.776152 29136 layer_factory.hpp:75] Creating layer inception_5b/relu_3x3
I0823 17:27:16.776173 29136 net.cpp:110] Creating Layer inception_5b/relu_3x3
I0823 17:27:16.776183 29136 net.cpp:476] inception_5b/relu_3x3 <- inception_5b/3x3
I0823 17:27:16.776195 29136 net.cpp:419] inception_5b/relu_3x3 -> inception_5b/3x3 (in-place)
I0823 17:27:16.776257 29136 net.cpp:155] Setting up inception_5b/relu_3x3
I0823 17:27:16.776268 29136 net.cpp:163] Top shape: 50 384 7 7 (940800)
I0823 17:27:16.776276 29136 layer_factory.hpp:75] Creating layer inception_5b/5x5_reduce
I0823 17:27:16.776288 29136 net.cpp:110] Creating Layer inception_5b/5x5_reduce
I0823 17:27:16.776296 29136 net.cpp:476] inception_5b/5x5_reduce <- inception_5a/output_inception_5a/output_0_split_2
I0823 17:27:16.776306 29136 net.cpp:432] inception_5b/5x5_reduce -> inception_5b/5x5_reduce
I0823 17:27:16.777205 29136 net.cpp:155] Setting up inception_5b/5x5_reduce
I0823 17:27:16.777220 29136 net.cpp:163] Top shape: 50 48 7 7 (117600)
I0823 17:27:16.777230 29136 layer_factory.hpp:75] Creating layer inception_5b/relu_5x5_reduce
I0823 17:27:16.777240 29136 net.cpp:110] Creating Layer inception_5b/relu_5x5_reduce
I0823 17:27:16.777246 29136 net.cpp:476] inception_5b/relu_5x5_reduce <- inception_5b/5x5_reduce
I0823 17:27:16.777257 29136 net.cpp:419] inception_5b/relu_5x5_reduce -> inception_5b/5x5_reduce (in-place)
I0823 17:27:16.777333 29136 net.cpp:155] Setting up inception_5b/relu_5x5_reduce
I0823 17:27:16.777345 29136 net.cpp:163] Top shape: 50 48 7 7 (117600)
I0823 17:27:16.777354 29136 layer_factory.hpp:75] Creating layer inception_5b/5x5
I0823 17:27:16.777364 29136 net.cpp:110] Creating Layer inception_5b/5x5
I0823 17:27:16.777372 29136 net.cpp:476] inception_5b/5x5 <- inception_5b/5x5_reduce
I0823 17:27:16.777384 29136 net.cpp:432] inception_5b/5x5 -> inception_5b/5x5
I0823 17:27:16.778556 29136 net.cpp:155] Setting up inception_5b/5x5
I0823 17:27:16.778570 29136 net.cpp:163] Top shape: 50 128 7 7 (313600)
I0823 17:27:16.778580 29136 layer_factory.hpp:75] Creating layer inception_5b/relu_5x5
I0823 17:27:16.778589 29136 net.cpp:110] Creating Layer inception_5b/relu_5x5
I0823 17:27:16.778597 29136 net.cpp:476] inception_5b/relu_5x5 <- inception_5b/5x5
I0823 17:27:16.778607 29136 net.cpp:419] inception_5b/relu_5x5 -> inception_5b/5x5 (in-place)
I0823 17:27:16.778764 29136 net.cpp:155] Setting up inception_5b/relu_5x5
I0823 17:27:16.778776 29136 net.cpp:163] Top shape: 50 128 7 7 (313600)
I0823 17:27:16.778784 29136 layer_factory.hpp:75] Creating layer inception_5b/pool
I0823 17:27:16.778792 29136 layer_factory.cpp:60] CUDNN does not support padding or multiple tops. Using Caffe's own pooling layer.
I0823 17:27:16.778803 29136 net.cpp:110] Creating Layer inception_5b/pool
I0823 17:27:16.778810 29136 net.cpp:476] inception_5b/pool <- inception_5a/output_inception_5a/output_0_split_3
I0823 17:27:16.778821 29136 net.cpp:432] inception_5b/pool -> inception_5b/pool
I0823 17:27:16.778836 29136 net.cpp:155] Setting up inception_5b/pool
I0823 17:27:16.778844 29136 net.cpp:163] Top shape: 50 832 7 7 (2038400)
I0823 17:27:16.778851 29136 layer_factory.hpp:75] Creating layer inception_5b/pool_proj
I0823 17:27:16.778861 29136 net.cpp:110] Creating Layer inception_5b/pool_proj
I0823 17:27:16.778867 29136 net.cpp:476] inception_5b/pool_proj <- inception_5b/pool
I0823 17:27:16.778878 29136 net.cpp:432] inception_5b/pool_proj -> inception_5b/pool_proj
I0823 17:27:16.780143 29136 net.cpp:155] Setting up inception_5b/pool_proj
I0823 17:27:16.780166 29136 net.cpp:163] Top shape: 50 128 7 7 (313600)
I0823 17:27:16.780176 29136 layer_factory.hpp:75] Creating layer inception_5b/relu_pool_proj
I0823 17:27:16.780185 29136 net.cpp:110] Creating Layer inception_5b/relu_pool_proj
I0823 17:27:16.780194 29136 net.cpp:476] inception_5b/relu_pool_proj <- inception_5b/pool_proj
I0823 17:27:16.780205 29136 net.cpp:419] inception_5b/relu_pool_proj -> inception_5b/pool_proj (in-place)
I0823 17:27:16.780266 29136 net.cpp:155] Setting up inception_5b/relu_pool_proj
I0823 17:27:16.780277 29136 net.cpp:163] Top shape: 50 128 7 7 (313600)
I0823 17:27:16.780284 29136 layer_factory.hpp:75] Creating layer inception_5b/output
I0823 17:27:16.780293 29136 net.cpp:110] Creating Layer inception_5b/output
I0823 17:27:16.780302 29136 net.cpp:476] inception_5b/output <- inception_5b/1x1
I0823 17:27:16.780308 29136 net.cpp:476] inception_5b/output <- inception_5b/3x3
I0823 17:27:16.780316 29136 net.cpp:476] inception_5b/output <- inception_5b/5x5
I0823 17:27:16.780333 29136 net.cpp:476] inception_5b/output <- inception_5b/pool_proj
I0823 17:27:16.780350 29136 net.cpp:432] inception_5b/output -> inception_5b/output
I0823 17:27:16.780364 29136 net.cpp:155] Setting up inception_5b/output
I0823 17:27:16.780372 29136 net.cpp:163] Top shape: 50 1024 7 7 (2508800)
I0823 17:27:16.780380 29136 layer_factory.hpp:75] Creating layer pool5/7x7_s1
I0823 17:27:16.780391 29136 net.cpp:110] Creating Layer pool5/7x7_s1
I0823 17:27:16.780398 29136 net.cpp:476] pool5/7x7_s1 <- inception_5b/output
I0823 17:27:16.780410 29136 net.cpp:432] pool5/7x7_s1 -> pool5/7x7_s1
I0823 17:27:16.780478 29136 net.cpp:155] Setting up pool5/7x7_s1
I0823 17:27:16.780489 29136 net.cpp:163] Top shape: 50 1024 1 1 (51200)
I0823 17:27:16.780498 29136 layer_factory.hpp:75] Creating layer pool5/drop_7x7_s1
I0823 17:27:16.780506 29136 net.cpp:110] Creating Layer pool5/drop_7x7_s1
I0823 17:27:16.780514 29136 net.cpp:476] pool5/drop_7x7_s1 <- pool5/7x7_s1
I0823 17:27:16.780521 29136 net.cpp:419] pool5/drop_7x7_s1 -> pool5/7x7_s1 (in-place)
I0823 17:27:16.780531 29136 net.cpp:155] Setting up pool5/drop_7x7_s1
I0823 17:27:16.780539 29136 net.cpp:163] Top shape: 50 1024 1 1 (51200)
I0823 17:27:16.780546 29136 layer_factory.hpp:75] Creating layer loss3/classifier
I0823 17:27:16.780556 29136 net.cpp:110] Creating Layer loss3/classifier
I0823 17:27:16.780563 29136 net.cpp:476] loss3/classifier <- pool5/7x7_s1
I0823 17:27:16.780572 29136 net.cpp:432] loss3/classifier -> loss3/classifier
I0823 17:27:16.787127 29136 net.cpp:155] Setting up loss3/classifier
I0823 17:27:16.787153 29136 net.cpp:163] Top shape: 50 1000 (50000)
I0823 17:27:16.787164 29136 layer_factory.hpp:75] Creating layer loss3/classifier_loss3/classifier_0_split
I0823 17:27:16.787176 29136 net.cpp:110] Creating Layer loss3/classifier_loss3/classifier_0_split
I0823 17:27:16.787185 29136 net.cpp:476] loss3/classifier_loss3/classifier_0_split <- loss3/classifier
I0823 17:27:16.787195 29136 net.cpp:432] loss3/classifier_loss3/classifier_0_split -> loss3/classifier_loss3/classifier_0_split_0
I0823 17:27:16.787207 29136 net.cpp:432] loss3/classifier_loss3/classifier_0_split -> loss3/classifier_loss3/classifier_0_split_1
I0823 17:27:16.787217 29136 net.cpp:432] loss3/classifier_loss3/classifier_0_split -> loss3/classifier_loss3/classifier_0_split_2
I0823 17:27:16.787230 29136 net.cpp:155] Setting up loss3/classifier_loss3/classifier_0_split
I0823 17:27:16.787237 29136 net.cpp:163] Top shape: 50 1000 (50000)
I0823 17:27:16.787245 29136 net.cpp:163] Top shape: 50 1000 (50000)
I0823 17:27:16.787252 29136 net.cpp:163] Top shape: 50 1000 (50000)
I0823 17:27:16.787258 29136 layer_factory.hpp:75] Creating layer loss3/loss3
I0823 17:27:16.787269 29136 net.cpp:110] Creating Layer loss3/loss3
I0823 17:27:16.787277 29136 net.cpp:476] loss3/loss3 <- loss3/classifier_loss3/classifier_0_split_0
I0823 17:27:16.787294 29136 net.cpp:476] loss3/loss3 <- label_data_1_split_6
I0823 17:27:16.787330 29136 net.cpp:432] loss3/loss3 -> loss3/loss3
…
